{"format": "graph-model", "generatedBy": "2.17.1", "convertedBy": "TensorFlow.js Converter v4.22.0", "signature": {"inputs": {"keras_tensor": {"name": "keras_tensor:0", "dtype": "DT_FLOAT", "tensorShape": {"dim": [{"size": "-1"}, {"size": "5"}, {"size": "6"}]}}}, "outputs": {"output_0": {"name": "Identity:0", "dtype": "DT_FLOAT", "tensorShape": {"dim": [{"size": "-1"}, {"size": "1"}]}}}}, "modelTopology": {"node": [{"name": "StatefulPartitionedCall/sequential_1/lstm_2_1/TensorArrayV2Stack/TensorListStack/element_shape", "op": "Const", "attr": {"value": {"tensor": {"dtype": "DT_INT32", "tensorShape": {"dim": [{"size": "2"}]}}}, "dtype": {"type": "DT_INT32"}}}, {"name": "StatefulPartitionedCall/sequential_1/lstm_2_1/strided_slice_3/stack", "op": "Const", "attr": {"value": {"tensor": {"dtype": "DT_INT32", "tensorShape": {"dim": [{"size": "1"}]}}}, "dtype": {"type": "DT_INT32"}}}, {"name": "StatefulPartitionedCall/sequential_1/lstm_2_1/strided_slice_3/stack_1", "op": "Const", "attr": {"value": {"tensor": {"dtype": "DT_INT32", "tensorShape": {"dim": [{"size": "1"}]}}}, "dtype": {"type": "DT_INT32"}}}, {"name": "StatefulPartitionedCall/sequential_1/lstm_2_1/strided_slice_3/stack_2", "op": "Const", "attr": {"value": {"tensor": {"dtype": "DT_INT32", "tensorShape": {"dim": [{"size": "1"}]}}}, "dtype": {"type": "DT_INT32"}}}, {"name": "StatefulPartitionedCall/sequential_1/dense_1/Cast/ReadVariableOp", "op": "Const", "attr": {"value": {"tensor": {"dtype": "DT_FLOAT", "tensorShape": {"dim": [{"size": "32"}, {"size": "10"}]}}}, "dtype": {"type": "DT_FLOAT"}}}, {"name": "StatefulPartitionedCall/sequential_1/dense_1/Add/ReadVariableOp", "op": "Const", "attr": {"value": {"tensor": {"dtype": "DT_FLOAT", "tensorShape": {"dim": [{"size": "10"}]}}}, "dtype": {"type": "DT_FLOAT"}}}, {"name": "StatefulPartitionedCall/sequential_1/dense_1_2/Cast/ReadVariableOp", "op": "Const", "attr": {"value": {"tensor": {"dtype": "DT_FLOAT", "tensorShape": {"dim": [{"size": "10"}, {"size": "1"}]}}}, "dtype": {"type": "DT_FLOAT"}}}, {"name": "StatefulPartitionedCall/sequential_1/dense_1_2/Add/ReadVariableOp", "op": "Const", "attr": {"value": {"tensor": {"dtype": "DT_FLOAT", "tensorShape": {"dim": [{"size": "1"}]}}}, "dtype": {"type": "DT_FLOAT"}}}, {"name": "StatefulPartitionedCall/sequential_1/lstm_2_1/Max", "op": "Const", "attr": {"value": {"tensor": {"dtype": "DT_INT32", "tensorShape": {}}}, "dtype": {"type": "DT_INT32"}}}, {"name": "StatefulPartitionedCall/sequential_1/lstm_2_1/while/loop_counter", "op": "Const", "attr": {"value": {"tensor": {"dtype": "DT_INT32", "tensorShape": {}}}, "_has_manual_control_dependencies": {"b": true}, "dtype": {"type": "DT_INT32"}}}, {"name": "StatefulPartitionedCall/sequential_1/lstm_2_1/time", "op": "Const", "attr": {"value": {"tensor": {"dtype": "DT_INT32", "tensorShape": {}}}, "_has_manual_control_dependencies": {"b": true}, "dtype": {"type": "DT_INT32"}}}, {"name": "Func/StatefulPartitionedCall/input/_10", "op": "Const", "attr": {"value": {"tensor": {"dtype": "DT_FLOAT", "tensorShape": {"dim": [{"size": "64"}, {"size": "128"}]}}}, "dtype": {"type": "DT_FLOAT"}}}, {"name": "Func/StatefulPartitionedCall/input/_11", "op": "Const", "attr": {"value": {"tensor": {"dtype": "DT_FLOAT", "tensorShape": {"dim": [{"size": "32"}, {"size": "128"}]}}}, "dtype": {"type": "DT_FLOAT"}}}, {"name": "Func/StatefulPartitionedCall/input/_12", "op": "Const", "attr": {"value": {"tensor": {"dtype": "DT_FLOAT", "tensorShape": {"dim": [{"size": "128"}]}}}, "dtype": {"type": "DT_FLOAT"}}}, {"name": "StatefulPartitionedCall/sequential_1/lstm_2_1/TensorArrayUnstack/TensorListFromTensor/element_shape", "op": "Const", "attr": {"value": {"tensor": {"dtype": "DT_INT32", "tensorShape": {"dim": [{"size": "2"}]}}}, "dtype": {"type": "DT_INT32"}}}, {"name": "StatefulPartitionedCall/sequential_1/lstm_2_1/TensorArrayV2_1/element_shape", "op": "Const", "attr": {"value": {"tensor": {"dtype": "DT_INT32", "tensorShape": {"dim": [{"size": "2"}]}}}, "dtype": {"type": "DT_INT32"}}}, {"name": "StatefulPartitionedCall/sequential_1/lstm_2_1/TensorArrayV2_1/num_elements", "op": "Const", "attr": {"value": {"tensor": {"dtype": "DT_INT32", "tensorShape": {}}}, "dtype": {"type": "DT_INT32"}}}, {"name": "StatefulPartitionedCall/sequential_1/lstm_2_1/zeros/packed/1", "op": "Const", "attr": {"value": {"tensor": {"dtype": "DT_INT32", "tensorShape": {}}}, "dtype": {"type": "DT_INT32"}}}, {"name": "StatefulPartitionedCall/sequential_1/lstm_2_1/zeros/Const", "op": "Const", "attr": {"value": {"tensor": {"dtype": "DT_FLOAT", "tensorShape": {}}}, "dtype": {"type": "DT_FLOAT"}}}, {"name": "StatefulPartitionedCall/sequential_1/lstm_1_1/TensorArrayV2Stack/TensorListStack/element_shape", "op": "Const", "attr": {"value": {"tensor": {"dtype": "DT_INT32", "tensorShape": {"dim": [{"size": "2"}]}}}, "dtype": {"type": "DT_INT32"}}}, {"name": "StatefulPartitionedCall/sequential_1/lstm_1_1/transpose_1/perm", "op": "Const", "attr": {"value": {"tensor": {"dtype": "DT_INT32", "tensorShape": {"dim": [{"size": "3"}]}}}, "dtype": {"type": "DT_INT32"}}}, {"name": "StatefulPartitionedCall/sequential_1/lstm_2_1/strided_slice/stack", "op": "Const", "attr": {"value": {"tensor": {"dtype": "DT_INT32", "tensorShape": {"dim": [{"size": "1"}]}}}, "dtype": {"type": "DT_INT32"}}}, {"name": "StatefulPartitionedCall/sequential_1/lstm_2_1/strided_slice/stack_1", "op": "Const", "attr": {"value": {"tensor": {"dtype": "DT_INT32", "tensorShape": {"dim": [{"size": "1"}]}}}, "dtype": {"type": "DT_INT32"}}}, {"name": "StatefulPartitionedCall/sequential_1/lstm_2_1/strided_slice/stack_2", "op": "Const", "attr": {"value": {"tensor": {"dtype": "DT_INT32", "tensorShape": {"dim": [{"size": "1"}]}}}, "dtype": {"type": "DT_INT32"}}}, {"name": "StatefulPartitionedCall/sequential_1/lstm_2_1/zeros_1/packed/1", "op": "Const", "attr": {"value": {"tensor": {"dtype": "DT_INT32", "tensorShape": {}}}, "dtype": {"type": "DT_INT32"}}}, {"name": "StatefulPartitionedCall/sequential_1/lstm_2_1/zeros_1/Const", "op": "Const", "attr": {"value": {"tensor": {"dtype": "DT_FLOAT", "tensorShape": {}}}, "dtype": {"type": "DT_FLOAT"}}}, {"name": "StatefulPartitionedCall/sequential_1/lstm_1_1/Max", "op": "Const", "attr": {"value": {"tensor": {"dtype": "DT_INT32", "tensorShape": {}}}, "dtype": {"type": "DT_INT32"}}}, {"name": "StatefulPartitionedCall/sequential_1/lstm_1_1/while/loop_counter", "op": "Const", "attr": {"value": {"tensor": {"dtype": "DT_INT32", "tensorShape": {}}}, "_has_manual_control_dependencies": {"b": true}, "dtype": {"type": "DT_INT32"}}}, {"name": "StatefulPartitionedCall/sequential_1/lstm_1_1/time", "op": "Const", "attr": {"value": {"tensor": {"dtype": "DT_INT32", "tensorShape": {}}}, "_has_manual_control_dependencies": {"b": true}, "dtype": {"type": "DT_INT32"}}}, {"name": "Func/StatefulPartitionedCall/input/_7", "op": "Const", "attr": {"value": {"tensor": {"dtype": "DT_FLOAT", "tensorShape": {"dim": [{"size": "256"}, {"size": "256"}]}}}, "dtype": {"type": "DT_FLOAT"}}}, {"name": "Func/StatefulPartitionedCall/input/_8", "op": "Const", "attr": {"value": {"tensor": {"dtype": "DT_FLOAT", "tensorShape": {"dim": [{"size": "64"}, {"size": "256"}]}}}, "dtype": {"type": "DT_FLOAT"}}}, {"name": "Func/StatefulPartitionedCall/input/_9", "op": "Const", "attr": {"value": {"tensor": {"dtype": "DT_FLOAT", "tensorShape": {"dim": [{"size": "256"}]}}}, "dtype": {"type": "DT_FLOAT"}}}, {"name": "StatefulPartitionedCall/sequential_1/lstm_1_1/transpose/perm", "op": "Const", "attr": {"value": {"tensor": {"dtype": "DT_INT32", "tensorShape": {"dim": [{"size": "3"}]}}}, "dtype": {"type": "DT_INT32"}}}, {"name": "StatefulPartitionedCall/sequential_1/lstm_1_1/TensorArrayUnstack/TensorListFromTensor/element_shape", "op": "Const", "attr": {"value": {"tensor": {"dtype": "DT_INT32", "tensorShape": {"dim": [{"size": "2"}]}}}, "dtype": {"type": "DT_INT32"}}}, {"name": "StatefulPartitionedCall/sequential_1/lstm_1_1/TensorArrayV2_1/element_shape", "op": "Const", "attr": {"value": {"tensor": {"dtype": "DT_INT32", "tensorShape": {"dim": [{"size": "2"}]}}}, "dtype": {"type": "DT_INT32"}}}, {"name": "StatefulPartitionedCall/sequential_1/lstm_1_1/TensorArrayV2_1/num_elements", "op": "Const", "attr": {"value": {"tensor": {"dtype": "DT_INT32", "tensorShape": {}}}, "dtype": {"type": "DT_INT32"}}}, {"name": "StatefulPartitionedCall/sequential_1/lstm_1_1/zeros/packed/1", "op": "Const", "attr": {"value": {"tensor": {"dtype": "DT_INT32", "tensorShape": {}}}, "dtype": {"type": "DT_INT32"}}}, {"name": "StatefulPartitionedCall/sequential_1/lstm_1_1/zeros/Const", "op": "Const", "attr": {"value": {"tensor": {"dtype": "DT_FLOAT", "tensorShape": {}}}, "dtype": {"type": "DT_FLOAT"}}}, {"name": "StatefulPartitionedCall/sequential_1/bidirectional_1/forward_lstm_1/Max", "op": "Const", "attr": {"value": {"tensor": {"dtype": "DT_INT32", "tensorShape": {}}}, "dtype": {"type": "DT_INT32"}}}, {"name": "StatefulPartitionedCall/sequential_1/bidirectional_1/forward_lstm_1/while/loop_counter", "op": "Const", "attr": {"value": {"tensor": {"dtype": "DT_INT32", "tensorShape": {}}}, "_has_manual_control_dependencies": {"b": true}, "dtype": {"type": "DT_INT32"}}}, {"name": "StatefulPartitionedCall/sequential_1/bidirectional_1/forward_lstm_1/time", "op": "Const", "attr": {"value": {"tensor": {"dtype": "DT_INT32", "tensorShape": {}}}, "_has_manual_control_dependencies": {"b": true}, "dtype": {"type": "DT_INT32"}}}, {"name": "Func/StatefulPartitionedCall/input/_1", "op": "Const", "attr": {"value": {"tensor": {"dtype": "DT_FLOAT", "tensorShape": {"dim": [{"size": "6"}, {"size": "512"}]}}}, "dtype": {"type": "DT_FLOAT"}}}, {"name": "Func/StatefulPartitionedCall/input/_2", "op": "Const", "attr": {"value": {"tensor": {"dtype": "DT_FLOAT", "tensorShape": {"dim": [{"size": "128"}, {"size": "512"}]}}}, "dtype": {"type": "DT_FLOAT"}}}, {"name": "Func/StatefulPartitionedCall/input/_3", "op": "Const", "attr": {"value": {"tensor": {"dtype": "DT_FLOAT", "tensorShape": {"dim": [{"size": "512"}]}}}, "dtype": {"type": "DT_FLOAT"}}}, {"name": "StatefulPartitionedCall/sequential_1/bidirectional_1/forward_lstm_1/transpose/perm", "op": "Const", "attr": {"value": {"tensor": {"dtype": "DT_INT32", "tensorShape": {"dim": [{"size": "3"}]}}}, "dtype": {"type": "DT_INT32"}}}, {"name": "StatefulPartitionedCall/sequential_1/bidirectional_1/forward_lstm_1/TensorArrayUnstack/TensorListFromTensor/element_shape", "op": "Const", "attr": {"value": {"tensor": {"dtype": "DT_INT32", "tensorShape": {"dim": [{"size": "2"}]}}}, "dtype": {"type": "DT_INT32"}}}, {"name": "StatefulPartitionedCall/sequential_1/bidirectional_1/forward_lstm_1/TensorArrayV2_1/element_shape", "op": "Const", "attr": {"value": {"tensor": {"dtype": "DT_INT32", "tensorShape": {"dim": [{"size": "2"}]}}}, "dtype": {"type": "DT_INT32"}}}, {"name": "StatefulPartitionedCall/sequential_1/bidirectional_1/forward_lstm_1/TensorArrayV2_1/num_elements", "op": "Const", "attr": {"value": {"tensor": {"dtype": "DT_INT32", "tensorShape": {}}}, "dtype": {"type": "DT_INT32"}}}, {"name": "StatefulPartitionedCall/sequential_1/bidirectional_1/forward_lstm_1/zeros/packed/1", "op": "Const", "attr": {"value": {"tensor": {"dtype": "DT_INT32", "tensorShape": {}}}, "dtype": {"type": "DT_INT32"}}}, {"name": "StatefulPartitionedCall/sequential_1/bidirectional_1/forward_lstm_1/zeros/Const", "op": "Const", "attr": {"value": {"tensor": {"dtype": "DT_FLOAT", "tensorShape": {}}}, "dtype": {"type": "DT_FLOAT"}}}, {"name": "StatefulPartitionedCall/sequential_1/bidirectional_1/forward_lstm_1/strided_slice/stack", "op": "Const", "attr": {"value": {"tensor": {"dtype": "DT_INT32", "tensorShape": {"dim": [{"size": "1"}]}}}, "dtype": {"type": "DT_INT32"}}}, {"name": "StatefulPartitionedCall/sequential_1/bidirectional_1/forward_lstm_1/strided_slice/stack_1", "op": "Const", "attr": {"value": {"tensor": {"dtype": "DT_INT32", "tensorShape": {"dim": [{"size": "1"}]}}}, "dtype": {"type": "DT_INT32"}}}, {"name": "StatefulPartitionedCall/sequential_1/bidirectional_1/forward_lstm_1/strided_slice/stack_2", "op": "Const", "attr": {"value": {"tensor": {"dtype": "DT_INT32", "tensorShape": {"dim": [{"size": "1"}]}}}, "dtype": {"type": "DT_INT32"}}}, {"name": "StatefulPartitionedCall/sequential_1/bidirectional_1/forward_lstm_1/zeros_1/packed/1", "op": "Const", "attr": {"value": {"tensor": {"dtype": "DT_INT32", "tensorShape": {}}}, "dtype": {"type": "DT_INT32"}}}, {"name": "StatefulPartitionedCall/sequential_1/bidirectional_1/forward_lstm_1/zeros_1/Const", "op": "Const", "attr": {"value": {"tensor": {"dtype": "DT_FLOAT", "tensorShape": {}}}, "dtype": {"type": "DT_FLOAT"}}}, {"name": "StatefulPartitionedCall/sequential_1/bidirectional_1/forward_lstm_1/TensorArrayV2Stack/TensorListStack/element_shape", "op": "Const", "attr": {"value": {"tensor": {"dtype": "DT_INT32", "tensorShape": {"dim": [{"size": "2"}]}}}, "dtype": {"type": "DT_INT32"}}}, {"name": "StatefulPartitionedCall/sequential_1/bidirectional_1/forward_lstm_1/transpose_1/perm", "op": "Const", "attr": {"value": {"tensor": {"dtype": "DT_INT32", "tensorShape": {"dim": [{"size": "3"}]}}}, "dtype": {"type": "DT_INT32"}}}, {"name": "StatefulPartitionedCall/sequential_1/bidirectional_1/backward_lstm_1/Max", "op": "Const", "attr": {"value": {"tensor": {"dtype": "DT_INT32", "tensorShape": {}}}, "dtype": {"type": "DT_INT32"}}}, {"name": "StatefulPartitionedCall/sequential_1/bidirectional_1/backward_lstm_1/while/loop_counter", "op": "Const", "attr": {"value": {"tensor": {"dtype": "DT_INT32", "tensorShape": {}}}, "_has_manual_control_dependencies": {"b": true}, "dtype": {"type": "DT_INT32"}}}, {"name": "StatefulPartitionedCall/sequential_1/bidirectional_1/backward_lstm_1/time", "op": "Const", "attr": {"value": {"tensor": {"dtype": "DT_INT32", "tensorShape": {}}}, "_has_manual_control_dependencies": {"b": true}, "dtype": {"type": "DT_INT32"}}}, {"name": "Func/StatefulPartitionedCall/input/_4", "op": "Const", "attr": {"value": {"tensor": {"dtype": "DT_FLOAT", "tensorShape": {"dim": [{"size": "6"}, {"size": "512"}]}}}, "dtype": {"type": "DT_FLOAT"}}}, {"name": "Func/StatefulPartitionedCall/input/_5", "op": "Const", "attr": {"value": {"tensor": {"dtype": "DT_FLOAT", "tensorShape": {"dim": [{"size": "128"}, {"size": "512"}]}}}, "dtype": {"type": "DT_FLOAT"}}}, {"name": "Func/StatefulPartitionedCall/input/_6", "op": "Const", "attr": {"value": {"tensor": {"dtype": "DT_FLOAT", "tensorShape": {"dim": [{"size": "512"}]}}}, "dtype": {"type": "DT_FLOAT"}}}, {"name": "StatefulPartitionedCall/sequential_1/bidirectional_1/backward_lstm_1/transpose/perm", "op": "Const", "attr": {"value": {"tensor": {"dtype": "DT_INT32", "tensorShape": {"dim": [{"size": "3"}]}}}, "dtype": {"type": "DT_INT32"}}}, {"name": "StatefulPartitionedCall/sequential_1/bidirectional_1/backward_lstm_1/ReverseV2/axis", "op": "Const", "attr": {"value": {"tensor": {"dtype": "DT_INT32", "tensorShape": {"dim": [{"size": "1"}]}}}, "dtype": {"type": "DT_INT32"}}}, {"name": "StatefulPartitionedCall/sequential_1/bidirectional_1/backward_lstm_1/TensorArrayUnstack/TensorListFromTensor/element_shape", "op": "Const", "attr": {"value": {"tensor": {"dtype": "DT_INT32", "tensorShape": {"dim": [{"size": "2"}]}}}, "dtype": {"type": "DT_INT32"}}}, {"name": "StatefulPartitionedCall/sequential_1/bidirectional_1/backward_lstm_1/TensorArrayV2_1/element_shape", "op": "Const", "attr": {"value": {"tensor": {"dtype": "DT_INT32", "tensorShape": {"dim": [{"size": "2"}]}}}, "dtype": {"type": "DT_INT32"}}}, {"name": "StatefulPartitionedCall/sequential_1/bidirectional_1/backward_lstm_1/TensorArrayV2_1/num_elements", "op": "Const", "attr": {"value": {"tensor": {"dtype": "DT_INT32", "tensorShape": {}}}, "dtype": {"type": "DT_INT32"}}}, {"name": "StatefulPartitionedCall/sequential_1/bidirectional_1/backward_lstm_1/zeros/packed/1", "op": "Const", "attr": {"value": {"tensor": {"dtype": "DT_INT32", "tensorShape": {}}}, "dtype": {"type": "DT_INT32"}}}, {"name": "StatefulPartitionedCall/sequential_1/bidirectional_1/backward_lstm_1/zeros/Const", "op": "Const", "attr": {"value": {"tensor": {"dtype": "DT_FLOAT", "tensorShape": {}}}, "dtype": {"type": "DT_FLOAT"}}}, {"name": "StatefulPartitionedCall/sequential_1/bidirectional_1/backward_lstm_1/strided_slice/stack", "op": "Const", "attr": {"value": {"tensor": {"dtype": "DT_INT32", "tensorShape": {"dim": [{"size": "1"}]}}}, "dtype": {"type": "DT_INT32"}}}, {"name": "StatefulPartitionedCall/sequential_1/bidirectional_1/backward_lstm_1/strided_slice/stack_1", "op": "Const", "attr": {"value": {"tensor": {"dtype": "DT_INT32", "tensorShape": {"dim": [{"size": "1"}]}}}, "dtype": {"type": "DT_INT32"}}}, {"name": "StatefulPartitionedCall/sequential_1/bidirectional_1/backward_lstm_1/strided_slice/stack_2", "op": "Const", "attr": {"value": {"tensor": {"dtype": "DT_INT32", "tensorShape": {"dim": [{"size": "1"}]}}}, "dtype": {"type": "DT_INT32"}}}, {"name": "StatefulPartitionedCall/sequential_1/bidirectional_1/backward_lstm_1/zeros_1/packed/1", "op": "Const", "attr": {"value": {"tensor": {"dtype": "DT_INT32", "tensorShape": {}}}, "dtype": {"type": "DT_INT32"}}}, {"name": "StatefulPartitionedCall/sequential_1/bidirectional_1/backward_lstm_1/zeros_1/Const", "op": "Const", "attr": {"value": {"tensor": {"dtype": "DT_FLOAT", "tensorShape": {}}}, "dtype": {"type": "DT_FLOAT"}}}, {"name": "StatefulPartitionedCall/sequential_1/bidirectional_1/backward_lstm_1/TensorArrayV2Stack/TensorListStack/element_shape", "op": "Const", "attr": {"value": {"tensor": {"dtype": "DT_INT32", "tensorShape": {"dim": [{"size": "2"}]}}}, "dtype": {"type": "DT_INT32"}}}, {"name": "StatefulPartitionedCall/sequential_1/bidirectional_1/backward_lstm_1/transpose_1/perm", "op": "Const", "attr": {"value": {"tensor": {"dtype": "DT_INT32", "tensorShape": {"dim": [{"size": "3"}]}}}, "dtype": {"type": "DT_INT32"}}}, {"name": "StatefulPartitionedCall/sequential_1/bidirectional_1/ReverseV2/axis", "op": "Const", "attr": {"value": {"tensor": {"dtype": "DT_INT32", "tensorShape": {"dim": [{"size": "1"}]}}}, "dtype": {"type": "DT_INT32"}}}, {"name": "StatefulPartitionedCall/sequential_1/bidirectional_1/concat/axis", "op": "Const", "attr": {"value": {"tensor": {"dtype": "DT_INT32", "tensorShape": {}}}, "dtype": {"type": "DT_INT32"}}}, {"name": "StatefulPartitionedCall/sequential_1/lstm_1_1/strided_slice/stack", "op": "Const", "attr": {"value": {"tensor": {"dtype": "DT_INT32", "tensorShape": {"dim": [{"size": "1"}]}}}, "dtype": {"type": "DT_INT32"}}}, {"name": "StatefulPartitionedCall/sequential_1/lstm_1_1/strided_slice/stack_1", "op": "Const", "attr": {"value": {"tensor": {"dtype": "DT_INT32", "tensorShape": {"dim": [{"size": "1"}]}}}, "dtype": {"type": "DT_INT32"}}}, {"name": "StatefulPartitionedCall/sequential_1/lstm_1_1/strided_slice/stack_2", "op": "Const", "attr": {"value": {"tensor": {"dtype": "DT_INT32", "tensorShape": {"dim": [{"size": "1"}]}}}, "dtype": {"type": "DT_INT32"}}}, {"name": "StatefulPartitionedCall/sequential_1/lstm_1_1/zeros_1/packed/1", "op": "Const", "attr": {"value": {"tensor": {"dtype": "DT_INT32", "tensorShape": {}}}, "dtype": {"type": "DT_INT32"}}}, {"name": "StatefulPartitionedCall/sequential_1/lstm_1_1/zeros_1/Const", "op": "Const", "attr": {"value": {"tensor": {"dtype": "DT_FLOAT", "tensorShape": {}}}, "dtype": {"type": "DT_FLOAT"}}}, {"name": "keras_tensor", "op": "Placeholder", "attr": {"shape": {"shape": {"dim": [{"size": "-1"}, {"size": "5"}, {"size": "6"}]}}, "dtype": {"type": "DT_FLOAT"}}}, {"name": "StatefulPartitionedCall/sequential_1/lstm_2_1/TensorArrayV2_1", "op": "TensorListReserve", "input": ["StatefulPartitionedCall/sequential_1/lstm_2_1/TensorArrayV2_1/element_shape", "StatefulPartitionedCall/sequential_1/lstm_2_1/TensorArrayV2_1/num_elements"], "attr": {"shape_type": {"type": "DT_INT32"}, "_has_manual_control_dependencies": {"b": true}, "element_dtype": {"type": "DT_FLOAT"}}, "experimentalType": {"typeId": "TFT_PRODUCT", "args": [{"typeId": "TFT_ARRAY", "args": [{"typeId": "TFT_TENSOR", "args": [{"typeId": "TFT_FLOAT"}]}]}]}}, {"name": "StatefulPartitionedCall/sequential_1/lstm_1_1/TensorArrayV2_1", "op": "TensorListReserve", "input": ["StatefulPartitionedCall/sequential_1/lstm_1_1/TensorArrayV2_1/element_shape", "StatefulPartitionedCall/sequential_1/lstm_1_1/TensorArrayV2_1/num_elements"], "attr": {"shape_type": {"type": "DT_INT32"}, "_has_manual_control_dependencies": {"b": true}, "element_dtype": {"type": "DT_FLOAT"}}, "experimentalType": {"typeId": "TFT_PRODUCT", "args": [{"typeId": "TFT_ARRAY", "args": [{"typeId": "TFT_TENSOR", "args": [{"typeId": "TFT_FLOAT"}]}]}]}}, {"name": "StatefulPartitionedCall/sequential_1/bidirectional_1/forward_lstm_1/TensorArrayV2_1", "op": "TensorListReserve", "input": ["StatefulPartitionedCall/sequential_1/bidirectional_1/forward_lstm_1/TensorArrayV2_1/element_shape", "StatefulPartitionedCall/sequential_1/bidirectional_1/forward_lstm_1/TensorArrayV2_1/num_elements"], "attr": {"shape_type": {"type": "DT_INT32"}, "_has_manual_control_dependencies": {"b": true}, "element_dtype": {"type": "DT_FLOAT"}}, "experimentalType": {"typeId": "TFT_PRODUCT", "args": [{"typeId": "TFT_ARRAY", "args": [{"typeId": "TFT_TENSOR", "args": [{"typeId": "TFT_FLOAT"}]}]}]}}, {"name": "StatefulPartitionedCall/sequential_1/bidirectional_1/backward_lstm_1/TensorArrayV2_1", "op": "TensorListReserve", "input": ["StatefulPartitionedCall/sequential_1/bidirectional_1/backward_lstm_1/TensorArrayV2_1/element_shape", "StatefulPartitionedCall/sequential_1/bidirectional_1/backward_lstm_1/TensorArrayV2_1/num_elements"], "attr": {"shape_type": {"type": "DT_INT32"}, "_has_manual_control_dependencies": {"b": true}, "element_dtype": {"type": "DT_FLOAT"}}, "experimentalType": {"typeId": "TFT_PRODUCT", "args": [{"typeId": "TFT_ARRAY", "args": [{"typeId": "TFT_TENSOR", "args": [{"typeId": "TFT_FLOAT"}]}]}]}}, {"name": "StatefulPartitionedCall/sequential_1/bidirectional_1/forward_lstm_1/transpose", "op": "Transpose", "input": ["keras_tensor", "StatefulPartitionedCall/sequential_1/bidirectional_1/forward_lstm_1/transpose/perm"], "attr": {"Tperm": {"type": "DT_INT32"}, "T": {"type": "DT_FLOAT"}}}, {"name": "StatefulPartitionedCall/sequential_1/bidirectional_1/forward_lstm_1/Shape", "op": "Shape", "input": ["keras_tensor"], "attr": {"T": {"type": "DT_FLOAT"}, "out_type": {"type": "DT_INT32"}}, "experimentalType": {"typeId": "TFT_PRODUCT", "args": [{"typeId": "TFT_SHAPE_TENSOR", "args": [{"typeId": "TFT_INT32"}]}]}}, {"name": "StatefulPartitionedCall/sequential_1/bidirectional_1/backward_lstm_1/transpose", "op": "Transpose", "input": ["keras_tensor", "StatefulPartitionedCall/sequential_1/bidirectional_1/backward_lstm_1/transpose/perm"], "attr": {"Tperm": {"type": "DT_INT32"}, "T": {"type": "DT_FLOAT"}}}, {"name": "StatefulPartitionedCall/sequential_1/bidirectional_1/backward_lstm_1/Shape", "op": "Shape", "input": ["keras_tensor"], "attr": {"T": {"type": "DT_FLOAT"}, "out_type": {"type": "DT_INT32"}}, "experimentalType": {"typeId": "TFT_PRODUCT", "args": [{"typeId": "TFT_SHAPE_TENSOR", "args": [{"typeId": "TFT_INT32"}]}]}}, {"name": "StatefulPartitionedCall/sequential_1/bidirectional_1/forward_lstm_1/TensorArrayUnstack/TensorListFromTensor", "op": "TensorListFromTensor", "input": ["StatefulPartitionedCall/sequential_1/bidirectional_1/forward_lstm_1/transpose", "StatefulPartitionedCall/sequential_1/bidirectional_1/forward_lstm_1/TensorArrayUnstack/TensorListFromTensor/element_shape"], "attr": {"shape_type": {"type": "DT_INT32"}, "_has_manual_control_dependencies": {"b": true}, "element_dtype": {"type": "DT_FLOAT"}}, "experimentalType": {"typeId": "TFT_PRODUCT", "args": [{"typeId": "TFT_ARRAY", "args": [{"typeId": "TFT_TENSOR", "args": [{"typeId": "TFT_FLOAT"}]}]}]}}, {"name": "StatefulPartitionedCall/sequential_1/bidirectional_1/forward_lstm_1/strided_slice", "op": "StridedSlice", "input": ["StatefulPartitionedCall/sequential_1/bidirectional_1/forward_lstm_1/Shape", "StatefulPartitionedCall/sequential_1/bidirectional_1/forward_lstm_1/strided_slice/stack", "StatefulPartitionedCall/sequential_1/bidirectional_1/forward_lstm_1/strided_slice/stack_1", "StatefulPartitionedCall/sequential_1/bidirectional_1/forward_lstm_1/strided_slice/stack_2"], "attr": {"shrink_axis_mask": {"i": "1"}, "Index": {"type": "DT_INT32"}, "new_axis_mask": {"i": "0"}, "begin_mask": {"i": "0"}, "end_mask": {"i": "0"}, "T": {"type": "DT_INT32"}, "ellipsis_mask": {"i": "0"}}}, {"name": "StatefulPartitionedCall/sequential_1/bidirectional_1/backward_lstm_1/ReverseV2", "op": "ReverseV2", "input": ["StatefulPartitionedCall/sequential_1/bidirectional_1/backward_lstm_1/transpose", "StatefulPartitionedCall/sequential_1/bidirectional_1/backward_lstm_1/ReverseV2/axis"], "attr": {"Tidx": {"type": "DT_INT32"}, "T": {"type": "DT_FLOAT"}}}, {"name": "StatefulPartitionedCall/sequential_1/bidirectional_1/backward_lstm_1/strided_slice", "op": "StridedSlice", "input": ["StatefulPartitionedCall/sequential_1/bidirectional_1/backward_lstm_1/Shape", "StatefulPartitionedCall/sequential_1/bidirectional_1/backward_lstm_1/strided_slice/stack", "StatefulPartitionedCall/sequential_1/bidirectional_1/backward_lstm_1/strided_slice/stack_1", "StatefulPartitionedCall/sequential_1/bidirectional_1/backward_lstm_1/strided_slice/stack_2"], "attr": {"shrink_axis_mask": {"i": "1"}, "Index": {"type": "DT_INT32"}, "new_axis_mask": {"i": "0"}, "begin_mask": {"i": "0"}, "T": {"type": "DT_INT32"}, "end_mask": {"i": "0"}, "ellipsis_mask": {"i": "0"}}}, {"name": "StatefulPartitionedCall/sequential_1/bidirectional_1/forward_lstm_1/zeros/packed", "op": "Pack", "input": ["StatefulPartitionedCall/sequential_1/bidirectional_1/forward_lstm_1/strided_slice", "StatefulPartitionedCall/sequential_1/bidirectional_1/forward_lstm_1/zeros/packed/1"], "attr": {"N": {"i": "2"}, "axis": {"i": "0"}, "T": {"type": "DT_INT32"}}}, {"name": "StatefulPartitionedCall/sequential_1/bidirectional_1/forward_lstm_1/zeros_1/packed", "op": "Pack", "input": ["StatefulPartitionedCall/sequential_1/bidirectional_1/forward_lstm_1/strided_slice", "StatefulPartitionedCall/sequential_1/bidirectional_1/forward_lstm_1/zeros_1/packed/1"], "attr": {"N": {"i": "2"}, "axis": {"i": "0"}, "T": {"type": "DT_INT32"}}}, {"name": "StatefulPartitionedCall/sequential_1/bidirectional_1/backward_lstm_1/TensorArrayUnstack/TensorListFromTensor", "op": "TensorListFromTensor", "input": ["StatefulPartitionedCall/sequential_1/bidirectional_1/backward_lstm_1/ReverseV2", "StatefulPartitionedCall/sequential_1/bidirectional_1/backward_lstm_1/TensorArrayUnstack/TensorListFromTensor/element_shape"], "attr": {"shape_type": {"type": "DT_INT32"}, "element_dtype": {"type": "DT_FLOAT"}}, "experimentalType": {"typeId": "TFT_PRODUCT", "args": [{"typeId": "TFT_ARRAY", "args": [{"typeId": "TFT_TENSOR", "args": [{"typeId": "TFT_FLOAT"}]}]}]}}, {"name": "StatefulPartitionedCall/sequential_1/bidirectional_1/backward_lstm_1/zeros/packed", "op": "Pack", "input": ["StatefulPartitionedCall/sequential_1/bidirectional_1/backward_lstm_1/strided_slice", "StatefulPartitionedCall/sequential_1/bidirectional_1/backward_lstm_1/zeros/packed/1"], "attr": {"N": {"i": "2"}, "axis": {"i": "0"}, "T": {"type": "DT_INT32"}}}, {"name": "StatefulPartitionedCall/sequential_1/bidirectional_1/backward_lstm_1/zeros_1/packed", "op": "Pack", "input": ["StatefulPartitionedCall/sequential_1/bidirectional_1/backward_lstm_1/strided_slice", "StatefulPartitionedCall/sequential_1/bidirectional_1/backward_lstm_1/zeros_1/packed/1"], "attr": {"N": {"i": "2"}, "axis": {"i": "0"}, "T": {"type": "DT_INT32"}}}, {"name": "StatefulPartitionedCall/sequential_1/bidirectional_1/forward_lstm_1/zeros", "op": "Fill", "input": ["StatefulPartitionedCall/sequential_1/bidirectional_1/forward_lstm_1/zeros/packed", "StatefulPartitionedCall/sequential_1/bidirectional_1/forward_lstm_1/zeros/Const"], "attr": {"T": {"type": "DT_FLOAT"}, "index_type": {"type": "DT_INT32"}}}, {"name": "StatefulPartitionedCall/sequential_1/bidirectional_1/forward_lstm_1/zeros_1", "op": "Fill", "input": ["StatefulPartitionedCall/sequential_1/bidirectional_1/forward_lstm_1/zeros_1/packed", "StatefulPartitionedCall/sequential_1/bidirectional_1/forward_lstm_1/zeros_1/Const"], "attr": {"_has_manual_control_dependencies": {"b": true}, "T": {"type": "DT_FLOAT"}, "index_type": {"type": "DT_INT32"}}}, {"name": "StatefulPartitionedCall/sequential_1/bidirectional_1/backward_lstm_1/zeros", "op": "Fill", "input": ["StatefulPartitionedCall/sequential_1/bidirectional_1/backward_lstm_1/zeros/packed", "StatefulPartitionedCall/sequential_1/bidirectional_1/backward_lstm_1/zeros/Const"], "attr": {"_has_manual_control_dependencies": {"b": true}, "T": {"type": "DT_FLOAT"}, "index_type": {"type": "DT_INT32"}}}, {"name": "StatefulPartitionedCall/sequential_1/bidirectional_1/backward_lstm_1/zeros_1", "op": "Fill", "input": ["StatefulPartitionedCall/sequential_1/bidirectional_1/backward_lstm_1/zeros_1/packed", "StatefulPartitionedCall/sequential_1/bidirectional_1/backward_lstm_1/zeros_1/Const"], "attr": {"_has_manual_control_dependencies": {"b": true}, "T": {"type": "DT_FLOAT"}, "index_type": {"type": "DT_INT32"}}}, {"name": "StatefulPartitionedCall/sequential_1/bidirectional_1/forward_lstm_1/while/LoopControlInputs/_31", "op": "NoOp", "input": ["^StatefulPartitionedCall/sequential_1/bidirectional_1/forward_lstm_1/TensorArrayUnstack/TensorListFromTensor", "^StatefulPartitionedCall/sequential_1/bidirectional_1/forward_lstm_1/TensorArrayV2_1", "^StatefulPartitionedCall/sequential_1/bidirectional_1/forward_lstm_1/zeros", "^StatefulPartitionedCall/sequential_1/bidirectional_1/forward_lstm_1/zeros_1"], "attr": {"_has_manual_control_dependencies": {"b": true}}}, {"name": "StatefulPartitionedCall/sequential_1/bidirectional_1/backward_lstm_1/while/LoopControlInputs/_75", "op": "NoOp", "input": ["^StatefulPartitionedCall/sequential_1/bidirectional_1/backward_lstm_1/TensorArrayUnstack/TensorListFromTensor", "^StatefulPartitionedCall/sequential_1/bidirectional_1/backward_lstm_1/TensorArrayV2_1", "^StatefulPartitionedCall/sequential_1/bidirectional_1/backward_lstm_1/zeros", "^StatefulPartitionedCall/sequential_1/bidirectional_1/backward_lstm_1/zeros_1"], "attr": {"_has_manual_control_dependencies": {"b": true}}}, {"name": "StatefulPartitionedCall/sequential_1/bidirectional_1/forward_lstm_1/while/enter/_24", "op": "Enter", "input": ["StatefulPartitionedCall/sequential_1/bidirectional_1/forward_lstm_1/TensorArrayV2_1", "^StatefulPartitionedCall/sequential_1/bidirectional_1/forward_lstm_1/while/LoopControlInputs/_31"], "attr": {"is_constant": {"b": false}, "frame_name": {"s": "U3RhdGVmdWxQYXJ0aXRpb25lZENhbGwvc2VxdWVudGlhbF8xL2JpZGlyZWN0aW9uYWxfMS9mb3J3YXJkX2xzdG1fMS93aGlsZQ=="}, "T": {"type": "DT_VARIANT"}, "parallel_iterations": {"i": "32"}}}, {"name": "StatefulPartitionedCall/sequential_1/bidirectional_1/forward_lstm_1/while/enter/_27", "op": "Enter", "input": ["StatefulPartitionedCall/sequential_1/bidirectional_1/forward_lstm_1/TensorArrayUnstack/TensorListFromTensor", "^StatefulPartitionedCall/sequential_1/bidirectional_1/forward_lstm_1/while/LoopControlInputs/_31"], "attr": {"is_constant": {"b": false}, "frame_name": {"s": "U3RhdGVmdWxQYXJ0aXRpb25lZENhbGwvc2VxdWVudGlhbF8xL2JpZGlyZWN0aW9uYWxfMS9mb3J3YXJkX2xzdG1fMS93aGlsZQ=="}, "T": {"type": "DT_VARIANT"}, "parallel_iterations": {"i": "32"}}}, {"name": "StatefulPartitionedCall/sequential_1/bidirectional_1/forward_lstm_1/while/enter/_22", "op": "Enter", "input": ["StatefulPartitionedCall/sequential_1/bidirectional_1/forward_lstm_1/Max", "^StatefulPartitionedCall/sequential_1/bidirectional_1/forward_lstm_1/while/LoopControlInputs/_31"], "attr": {"is_constant": {"b": false}, "frame_name": {"s": "U3RhdGVmdWxQYXJ0aXRpb25lZENhbGwvc2VxdWVudGlhbF8xL2JpZGlyZWN0aW9uYWxfMS9mb3J3YXJkX2xzdG1fMS93aGlsZQ=="}, "T": {"type": "DT_INT32"}, "parallel_iterations": {"i": "32"}}}, {"name": "StatefulPartitionedCall/sequential_1/bidirectional_1/forward_lstm_1/while/enter/_21", "op": "Enter", "input": ["StatefulPartitionedCall/sequential_1/bidirectional_1/forward_lstm_1/while/loop_counter", "^StatefulPartitionedCall/sequential_1/bidirectional_1/forward_lstm_1/while/LoopControlInputs/_31"], "attr": {"is_constant": {"b": false}, "frame_name": {"s": "U3RhdGVmdWxQYXJ0aXRpb25lZENhbGwvc2VxdWVudGlhbF8xL2JpZGlyZWN0aW9uYWxfMS9mb3J3YXJkX2xzdG1fMS93aGlsZQ=="}, "T": {"type": "DT_INT32"}, "parallel_iterations": {"i": "32"}}}, {"name": "StatefulPartitionedCall/sequential_1/bidirectional_1/forward_lstm_1/while/enter/_25", "op": "Enter", "input": ["StatefulPartitionedCall/sequential_1/bidirectional_1/forward_lstm_1/zeros", "^StatefulPartitionedCall/sequential_1/bidirectional_1/forward_lstm_1/while/LoopControlInputs/_31"], "attr": {"is_constant": {"b": false}, "frame_name": {"s": "U3RhdGVmdWxQYXJ0aXRpb25lZENhbGwvc2VxdWVudGlhbF8xL2JpZGlyZWN0aW9uYWxfMS9mb3J3YXJkX2xzdG1fMS93aGlsZQ=="}, "T": {"type": "DT_FLOAT"}, "parallel_iterations": {"i": "32"}}}, {"name": "StatefulPartitionedCall/sequential_1/bidirectional_1/forward_lstm_1/while/enter/_26", "op": "Enter", "input": ["StatefulPartitionedCall/sequential_1/bidirectional_1/forward_lstm_1/zeros_1", "^StatefulPartitionedCall/sequential_1/bidirectional_1/forward_lstm_1/while/LoopControlInputs/_31"], "attr": {"is_constant": {"b": false}, "frame_name": {"s": "U3RhdGVmdWxQYXJ0aXRpb25lZENhbGwvc2VxdWVudGlhbF8xL2JpZGlyZWN0aW9uYWxfMS9mb3J3YXJkX2xzdG1fMS93aGlsZQ=="}, "T": {"type": "DT_FLOAT"}, "parallel_iterations": {"i": "32"}}}, {"name": "StatefulPartitionedCall/sequential_1/bidirectional_1/forward_lstm_1/while/enter/_23", "op": "Enter", "input": ["StatefulPartitionedCall/sequential_1/bidirectional_1/forward_lstm_1/time", "^StatefulPartitionedCall/sequential_1/bidirectional_1/forward_lstm_1/while/LoopControlInputs/_31"], "attr": {"is_constant": {"b": false}, "frame_name": {"s": "U3RhdGVmdWxQYXJ0aXRpb25lZENhbGwvc2VxdWVudGlhbF8xL2JpZGlyZWN0aW9uYWxfMS9mb3J3YXJkX2xzdG1fMS93aGlsZQ=="}, "T": {"type": "DT_INT32"}, "parallel_iterations": {"i": "32"}}}, {"name": "StatefulPartitionedCall/sequential_1/bidirectional_1/forward_lstm_1/while/enter/_28", "op": "Enter", "input": ["Func/StatefulPartitionedCall/input/_1", "^StatefulPartitionedCall/sequential_1/bidirectional_1/forward_lstm_1/while/LoopControlInputs/_31"], "attr": {"is_constant": {"b": true}, "frame_name": {"s": "U3RhdGVmdWxQYXJ0aXRpb25lZENhbGwvc2VxdWVudGlhbF8xL2JpZGlyZWN0aW9uYWxfMS9mb3J3YXJkX2xzdG1fMS93aGlsZQ=="}, "T": {"type": "DT_FLOAT"}, "_has_manual_control_dependencies": {"b": true}, "parallel_iterations": {"i": "32"}}}, {"name": "StatefulPartitionedCall/sequential_1/bidirectional_1/forward_lstm_1/while/enter/_29", "op": "Enter", "input": ["Func/StatefulPartitionedCall/input/_2", "^StatefulPartitionedCall/sequential_1/bidirectional_1/forward_lstm_1/while/LoopControlInputs/_31"], "attr": {"is_constant": {"b": true}, "_has_manual_control_dependencies": {"b": true}, "T": {"type": "DT_FLOAT"}, "frame_name": {"s": "U3RhdGVmdWxQYXJ0aXRpb25lZENhbGwvc2VxdWVudGlhbF8xL2JpZGlyZWN0aW9uYWxfMS9mb3J3YXJkX2xzdG1fMS93aGlsZQ=="}, "parallel_iterations": {"i": "32"}}}, {"name": "StatefulPartitionedCall/sequential_1/bidirectional_1/forward_lstm_1/while/enter/_30", "op": "Enter", "input": ["Func/StatefulPartitionedCall/input/_3", "^StatefulPartitionedCall/sequential_1/bidirectional_1/forward_lstm_1/while/LoopControlInputs/_31"], "attr": {"is_constant": {"b": true}, "frame_name": {"s": "U3RhdGVmdWxQYXJ0aXRpb25lZENhbGwvc2VxdWVudGlhbF8xL2JpZGlyZWN0aW9uYWxfMS9mb3J3YXJkX2xzdG1fMS93aGlsZQ=="}, "T": {"type": "DT_FLOAT"}, "_has_manual_control_dependencies": {"b": true}, "parallel_iterations": {"i": "32"}}}, {"name": "StatefulPartitionedCall/sequential_1/bidirectional_1/backward_lstm_1/while/enter/_68", "op": "Enter", "input": ["StatefulPartitionedCall/sequential_1/bidirectional_1/backward_lstm_1/TensorArrayV2_1", "^StatefulPartitionedCall/sequential_1/bidirectional_1/backward_lstm_1/while/LoopControlInputs/_75"], "attr": {"is_constant": {"b": false}, "frame_name": {"s": "U3RhdGVmdWxQYXJ0aXRpb25lZENhbGwvc2VxdWVudGlhbF8xL2JpZGlyZWN0aW9uYWxfMS9iYWNrd2FyZF9sc3RtXzEvd2hpbGU="}, "T": {"type": "DT_VARIANT"}, "parallel_iterations": {"i": "32"}}}, {"name": "StatefulPartitionedCall/sequential_1/bidirectional_1/backward_lstm_1/while/enter/_71", "op": "Enter", "input": ["StatefulPartitionedCall/sequential_1/bidirectional_1/backward_lstm_1/TensorArrayUnstack/TensorListFromTensor", "^StatefulPartitionedCall/sequential_1/bidirectional_1/backward_lstm_1/while/LoopControlInputs/_75"], "attr": {"is_constant": {"b": false}, "frame_name": {"s": "U3RhdGVmdWxQYXJ0aXRpb25lZENhbGwvc2VxdWVudGlhbF8xL2JpZGlyZWN0aW9uYWxfMS9iYWNrd2FyZF9sc3RtXzEvd2hpbGU="}, "T": {"type": "DT_VARIANT"}, "parallel_iterations": {"i": "32"}}}, {"name": "StatefulPartitionedCall/sequential_1/bidirectional_1/backward_lstm_1/while/enter/_66", "op": "Enter", "input": ["StatefulPartitionedCall/sequential_1/bidirectional_1/backward_lstm_1/Max", "^StatefulPartitionedCall/sequential_1/bidirectional_1/backward_lstm_1/while/LoopControlInputs/_75"], "attr": {"is_constant": {"b": false}, "frame_name": {"s": "U3RhdGVmdWxQYXJ0aXRpb25lZENhbGwvc2VxdWVudGlhbF8xL2JpZGlyZWN0aW9uYWxfMS9iYWNrd2FyZF9sc3RtXzEvd2hpbGU="}, "T": {"type": "DT_INT32"}, "parallel_iterations": {"i": "32"}}}, {"name": "StatefulPartitionedCall/sequential_1/bidirectional_1/backward_lstm_1/while/enter/_65", "op": "Enter", "input": ["StatefulPartitionedCall/sequential_1/bidirectional_1/backward_lstm_1/while/loop_counter", "^StatefulPartitionedCall/sequential_1/bidirectional_1/backward_lstm_1/while/LoopControlInputs/_75"], "attr": {"is_constant": {"b": false}, "frame_name": {"s": "U3RhdGVmdWxQYXJ0aXRpb25lZENhbGwvc2VxdWVudGlhbF8xL2JpZGlyZWN0aW9uYWxfMS9iYWNrd2FyZF9sc3RtXzEvd2hpbGU="}, "T": {"type": "DT_INT32"}, "parallel_iterations": {"i": "32"}}}, {"name": "StatefulPartitionedCall/sequential_1/bidirectional_1/backward_lstm_1/while/enter/_69", "op": "Enter", "input": ["StatefulPartitionedCall/sequential_1/bidirectional_1/backward_lstm_1/zeros", "^StatefulPartitionedCall/sequential_1/bidirectional_1/backward_lstm_1/while/LoopControlInputs/_75"], "attr": {"is_constant": {"b": false}, "frame_name": {"s": "U3RhdGVmdWxQYXJ0aXRpb25lZENhbGwvc2VxdWVudGlhbF8xL2JpZGlyZWN0aW9uYWxfMS9iYWNrd2FyZF9sc3RtXzEvd2hpbGU="}, "T": {"type": "DT_FLOAT"}, "parallel_iterations": {"i": "32"}}}, {"name": "StatefulPartitionedCall/sequential_1/bidirectional_1/backward_lstm_1/while/enter/_70", "op": "Enter", "input": ["StatefulPartitionedCall/sequential_1/bidirectional_1/backward_lstm_1/zeros_1", "^StatefulPartitionedCall/sequential_1/bidirectional_1/backward_lstm_1/while/LoopControlInputs/_75"], "attr": {"is_constant": {"b": false}, "frame_name": {"s": "U3RhdGVmdWxQYXJ0aXRpb25lZENhbGwvc2VxdWVudGlhbF8xL2JpZGlyZWN0aW9uYWxfMS9iYWNrd2FyZF9sc3RtXzEvd2hpbGU="}, "T": {"type": "DT_FLOAT"}, "parallel_iterations": {"i": "32"}}}, {"name": "StatefulPartitionedCall/sequential_1/bidirectional_1/backward_lstm_1/while/enter/_67", "op": "Enter", "input": ["StatefulPartitionedCall/sequential_1/bidirectional_1/backward_lstm_1/time", "^StatefulPartitionedCall/sequential_1/bidirectional_1/backward_lstm_1/while/LoopControlInputs/_75"], "attr": {"is_constant": {"b": false}, "frame_name": {"s": "U3RhdGVmdWxQYXJ0aXRpb25lZENhbGwvc2VxdWVudGlhbF8xL2JpZGlyZWN0aW9uYWxfMS9iYWNrd2FyZF9sc3RtXzEvd2hpbGU="}, "T": {"type": "DT_INT32"}, "parallel_iterations": {"i": "32"}}}, {"name": "StatefulPartitionedCall/sequential_1/bidirectional_1/backward_lstm_1/while/enter/_72", "op": "Enter", "input": ["Func/StatefulPartitionedCall/input/_4", "^StatefulPartitionedCall/sequential_1/bidirectional_1/backward_lstm_1/while/LoopControlInputs/_75"], "attr": {"is_constant": {"b": true}, "frame_name": {"s": "U3RhdGVmdWxQYXJ0aXRpb25lZENhbGwvc2VxdWVudGlhbF8xL2JpZGlyZWN0aW9uYWxfMS9iYWNrd2FyZF9sc3RtXzEvd2hpbGU="}, "T": {"type": "DT_FLOAT"}, "_has_manual_control_dependencies": {"b": true}, "parallel_iterations": {"i": "32"}}}, {"name": "StatefulPartitionedCall/sequential_1/bidirectional_1/backward_lstm_1/while/enter/_73", "op": "Enter", "input": ["Func/StatefulPartitionedCall/input/_5", "^StatefulPartitionedCall/sequential_1/bidirectional_1/backward_lstm_1/while/LoopControlInputs/_75"], "attr": {"is_constant": {"b": true}, "_has_manual_control_dependencies": {"b": true}, "T": {"type": "DT_FLOAT"}, "frame_name": {"s": "U3RhdGVmdWxQYXJ0aXRpb25lZENhbGwvc2VxdWVudGlhbF8xL2JpZGlyZWN0aW9uYWxfMS9iYWNrd2FyZF9sc3RtXzEvd2hpbGU="}, "parallel_iterations": {"i": "32"}}}, {"name": "StatefulPartitionedCall/sequential_1/bidirectional_1/backward_lstm_1/while/enter/_74", "op": "Enter", "input": ["Func/StatefulPartitionedCall/input/_6", "^StatefulPartitionedCall/sequential_1/bidirectional_1/backward_lstm_1/while/LoopControlInputs/_75"], "attr": {"is_constant": {"b": true}, "frame_name": {"s": "U3RhdGVmdWxQYXJ0aXRpb25lZENhbGwvc2VxdWVudGlhbF8xL2JpZGlyZWN0aW9uYWxfMS9iYWNrd2FyZF9sc3RtXzEvd2hpbGU="}, "T": {"type": "DT_FLOAT"}, "_has_manual_control_dependencies": {"b": true}, "parallel_iterations": {"i": "32"}}}, {"name": "StatefulPartitionedCall/sequential_1/bidirectional_1/forward_lstm_1/while/merge/_35", "op": "Merge", "input": ["StatefulPartitionedCall/sequential_1/bidirectional_1/forward_lstm_1/while/enter/_24", "StatefulPartitionedCall/sequential_1/bidirectional_1/forward_lstm_1/while/next_iteration/_59"], "attr": {"N": {"i": "2"}, "_has_manual_control_dependencies": {"b": true}, "T": {"type": "DT_VARIANT"}}}, {"name": "StatefulPartitionedCall/sequential_1/bidirectional_1/forward_lstm_1/while/merge/_38", "op": "Merge", "input": ["StatefulPartitionedCall/sequential_1/bidirectional_1/forward_lstm_1/while/enter/_27", "StatefulPartitionedCall/sequential_1/bidirectional_1/forward_lstm_1/while/next_iteration/_62"], "attr": {"N": {"i": "2"}, "_has_manual_control_dependencies": {"b": true}, "T": {"type": "DT_VARIANT"}}}, {"name": "StatefulPartitionedCall/sequential_1/bidirectional_1/forward_lstm_1/while/merge/_33", "op": "Merge", "input": ["StatefulPartitionedCall/sequential_1/bidirectional_1/forward_lstm_1/while/enter/_22", "StatefulPartitionedCall/sequential_1/bidirectional_1/forward_lstm_1/while/next_iteration/_57"], "attr": {"N": {"i": "2"}, "_has_manual_control_dependencies": {"b": true}, "T": {"type": "DT_INT32"}}}, {"name": "StatefulPartitionedCall/sequential_1/bidirectional_1/forward_lstm_1/while/merge/_32", "op": "Merge", "input": ["StatefulPartitionedCall/sequential_1/bidirectional_1/forward_lstm_1/while/enter/_21", "StatefulPartitionedCall/sequential_1/bidirectional_1/forward_lstm_1/while/next_iteration/_56"], "attr": {"N": {"i": "2"}, "_has_manual_control_dependencies": {"b": true}, "T": {"type": "DT_INT32"}}}, {"name": "StatefulPartitionedCall/sequential_1/bidirectional_1/forward_lstm_1/while/merge/_36", "op": "Merge", "input": ["StatefulPartitionedCall/sequential_1/bidirectional_1/forward_lstm_1/while/enter/_25", "StatefulPartitionedCall/sequential_1/bidirectional_1/forward_lstm_1/while/next_iteration/_60"], "attr": {"N": {"i": "2"}, "_has_manual_control_dependencies": {"b": true}, "T": {"type": "DT_FLOAT"}}}, {"name": "StatefulPartitionedCall/sequential_1/bidirectional_1/forward_lstm_1/while/merge/_37", "op": "Merge", "input": ["StatefulPartitionedCall/sequential_1/bidirectional_1/forward_lstm_1/while/enter/_26", "StatefulPartitionedCall/sequential_1/bidirectional_1/forward_lstm_1/while/next_iteration/_61"], "attr": {"N": {"i": "2"}, "_has_manual_control_dependencies": {"b": true}, "T": {"type": "DT_FLOAT"}}}, {"name": "StatefulPartitionedCall/sequential_1/bidirectional_1/forward_lstm_1/while/merge/_34", "op": "Merge", "input": ["StatefulPartitionedCall/sequential_1/bidirectional_1/forward_lstm_1/while/enter/_23", "StatefulPartitionedCall/sequential_1/bidirectional_1/forward_lstm_1/while/next_iteration/_58"], "attr": {"N": {"i": "2"}, "_has_manual_control_dependencies": {"b": true}, "T": {"type": "DT_INT32"}}}, {"name": "StatefulPartitionedCall/sequential_1/bidirectional_1/backward_lstm_1/while/merge/_79", "op": "Merge", "input": ["StatefulPartitionedCall/sequential_1/bidirectional_1/backward_lstm_1/while/enter/_68", "StatefulPartitionedCall/sequential_1/bidirectional_1/backward_lstm_1/while/next_iteration/_103"], "attr": {"N": {"i": "2"}, "T": {"type": "DT_VARIANT"}}}, {"name": "StatefulPartitionedCall/sequential_1/bidirectional_1/backward_lstm_1/while/merge/_82", "op": "Merge", "input": ["StatefulPartitionedCall/sequential_1/bidirectional_1/backward_lstm_1/while/enter/_71", "StatefulPartitionedCall/sequential_1/bidirectional_1/backward_lstm_1/while/next_iteration/_106"], "attr": {"N": {"i": "2"}, "T": {"type": "DT_VARIANT"}}}, {"name": "StatefulPartitionedCall/sequential_1/bidirectional_1/backward_lstm_1/while/merge/_77", "op": "Merge", "input": ["StatefulPartitionedCall/sequential_1/bidirectional_1/backward_lstm_1/while/enter/_66", "StatefulPartitionedCall/sequential_1/bidirectional_1/backward_lstm_1/while/next_iteration/_101"], "attr": {"N": {"i": "2"}, "_has_manual_control_dependencies": {"b": true}, "T": {"type": "DT_INT32"}}}, {"name": "StatefulPartitionedCall/sequential_1/bidirectional_1/backward_lstm_1/while/merge/_76", "op": "Merge", "input": ["StatefulPartitionedCall/sequential_1/bidirectional_1/backward_lstm_1/while/enter/_65", "StatefulPartitionedCall/sequential_1/bidirectional_1/backward_lstm_1/while/next_iteration/_100"], "attr": {"N": {"i": "2"}, "_has_manual_control_dependencies": {"b": true}, "T": {"type": "DT_INT32"}}}, {"name": "StatefulPartitionedCall/sequential_1/bidirectional_1/backward_lstm_1/while/merge/_80", "op": "Merge", "input": ["StatefulPartitionedCall/sequential_1/bidirectional_1/backward_lstm_1/while/enter/_69", "StatefulPartitionedCall/sequential_1/bidirectional_1/backward_lstm_1/while/next_iteration/_104"], "attr": {"N": {"i": "2"}, "T": {"type": "DT_FLOAT"}}}, {"name": "StatefulPartitionedCall/sequential_1/bidirectional_1/backward_lstm_1/while/merge/_81", "op": "Merge", "input": ["StatefulPartitionedCall/sequential_1/bidirectional_1/backward_lstm_1/while/enter/_70", "StatefulPartitionedCall/sequential_1/bidirectional_1/backward_lstm_1/while/next_iteration/_105"], "attr": {"N": {"i": "2"}, "T": {"type": "DT_FLOAT"}}}, {"name": "StatefulPartitionedCall/sequential_1/bidirectional_1/backward_lstm_1/while/merge/_78", "op": "Merge", "input": ["StatefulPartitionedCall/sequential_1/bidirectional_1/backward_lstm_1/while/enter/_67", "StatefulPartitionedCall/sequential_1/bidirectional_1/backward_lstm_1/while/next_iteration/_102"], "attr": {"N": {"i": "2"}, "T": {"type": "DT_INT32"}}}, {"name": "Func/StatefulPartitionedCall/sequential_1/bidirectional_1/forward_lstm_1/while/cond/_19/input_control_node/_195", "op": "NoOp", "input": ["^StatefulPartitionedCall/sequential_1/bidirectional_1/forward_lstm_1/while/enter/_28", "^StatefulPartitionedCall/sequential_1/bidirectional_1/forward_lstm_1/while/enter/_29", "^StatefulPartitionedCall/sequential_1/bidirectional_1/forward_lstm_1/while/enter/_30", "^StatefulPartitionedCall/sequential_1/bidirectional_1/forward_lstm_1/while/merge/_32", "^StatefulPartitionedCall/sequential_1/bidirectional_1/forward_lstm_1/while/merge/_33", "^StatefulPartitionedCall/sequential_1/bidirectional_1/forward_lstm_1/while/merge/_34", "^StatefulPartitionedCall/sequential_1/bidirectional_1/forward_lstm_1/while/merge/_35", "^StatefulPartitionedCall/sequential_1/bidirectional_1/forward_lstm_1/while/merge/_36", "^StatefulPartitionedCall/sequential_1/bidirectional_1/forward_lstm_1/while/merge/_37", "^StatefulPartitionedCall/sequential_1/bidirectional_1/forward_lstm_1/while/merge/_38"], "attr": {"_has_manual_control_dependencies": {"b": true}}}, {"name": "Func/StatefulPartitionedCall/sequential_1/bidirectional_1/backward_lstm_1/while/cond/_63/input_control_node/_229", "op": "NoOp", "input": ["^StatefulPartitionedCall/sequential_1/bidirectional_1/backward_lstm_1/while/enter/_72", "^StatefulPartitionedCall/sequential_1/bidirectional_1/backward_lstm_1/while/enter/_73", "^StatefulPartitionedCall/sequential_1/bidirectional_1/backward_lstm_1/while/enter/_74", "^StatefulPartitionedCall/sequential_1/bidirectional_1/backward_lstm_1/while/merge/_76", "^StatefulPartitionedCall/sequential_1/bidirectional_1/backward_lstm_1/while/merge/_77", "^StatefulPartitionedCall/sequential_1/bidirectional_1/backward_lstm_1/while/merge/_78", "^StatefulPartitionedCall/sequential_1/bidirectional_1/backward_lstm_1/while/merge/_79", "^StatefulPartitionedCall/sequential_1/bidirectional_1/backward_lstm_1/while/merge/_80", "^StatefulPartitionedCall/sequential_1/bidirectional_1/backward_lstm_1/while/merge/_81", "^StatefulPartitionedCall/sequential_1/bidirectional_1/backward_lstm_1/while/merge/_82"], "attr": {"_has_manual_control_dependencies": {"b": true}}}, {"name": "StatefulPartitionedCall/sequential_1/bidirectional_1/forward_lstm_1/while/cond/_19/sequential_1/bidirectional_1/forward_lstm_1/while/Less_1", "op": "Less", "input": ["StatefulPartitionedCall/sequential_1/bidirectional_1/forward_lstm_1/while/merge/_32", "StatefulPartitionedCall/sequential_1/bidirectional_1/forward_lstm_1/while/merge/_33", "^Func/StatefulPartitionedCall/sequential_1/bidirectional_1/forward_lstm_1/while/cond/_19/input_control_node/_195"], "attr": {"T": {"type": "DT_INT32"}}}, {"name": "StatefulPartitionedCall/sequential_1/bidirectional_1/forward_lstm_1/while/cond/_19/sequential_1/bidirectional_1/forward_lstm_1/while/Less/y", "op": "Const", "input": ["^Func/StatefulPartitionedCall/sequential_1/bidirectional_1/forward_lstm_1/while/cond/_19/input_control_node/_195"], "attr": {"value": {"tensor": {"dtype": "DT_INT32", "tensorShape": {}}}, "dtype": {"type": "DT_INT32"}}}, {"name": "StatefulPartitionedCall/sequential_1/bidirectional_1/backward_lstm_1/while/cond/_63/sequential_1/bidirectional_1/backward_lstm_1/while/Less_1", "op": "Less", "input": ["StatefulPartitionedCall/sequential_1/bidirectional_1/backward_lstm_1/while/merge/_76", "StatefulPartitionedCall/sequential_1/bidirectional_1/backward_lstm_1/while/merge/_77", "^Func/StatefulPartitionedCall/sequential_1/bidirectional_1/backward_lstm_1/while/cond/_63/input_control_node/_229"], "attr": {"T": {"type": "DT_INT32"}}}, {"name": "StatefulPartitionedCall/sequential_1/bidirectional_1/backward_lstm_1/while/cond/_63/sequential_1/bidirectional_1/backward_lstm_1/while/Less/y", "op": "Const", "input": ["^Func/StatefulPartitionedCall/sequential_1/bidirectional_1/backward_lstm_1/while/cond/_63/input_control_node/_229"], "attr": {"value": {"tensor": {"dtype": "DT_INT32", "tensorShape": {}}}, "dtype": {"type": "DT_INT32"}}}, {"name": "StatefulPartitionedCall/sequential_1/bidirectional_1/forward_lstm_1/while/cond/_19/sequential_1/bidirectional_1/forward_lstm_1/while/Less", "op": "Less", "input": ["StatefulPartitionedCall/sequential_1/bidirectional_1/forward_lstm_1/while/merge/_34", "StatefulPartitionedCall/sequential_1/bidirectional_1/forward_lstm_1/while/cond/_19/sequential_1/bidirectional_1/forward_lstm_1/while/Less/y"], "attr": {"T": {"type": "DT_INT32"}}}, {"name": "StatefulPartitionedCall/sequential_1/bidirectional_1/backward_lstm_1/while/cond/_63/sequential_1/bidirectional_1/backward_lstm_1/while/Less", "op": "Less", "input": ["StatefulPartitionedCall/sequential_1/bidirectional_1/backward_lstm_1/while/merge/_78", "StatefulPartitionedCall/sequential_1/bidirectional_1/backward_lstm_1/while/cond/_63/sequential_1/bidirectional_1/backward_lstm_1/while/Less/y"], "attr": {"T": {"type": "DT_INT32"}}}, {"name": "StatefulPartitionedCall/sequential_1/bidirectional_1/forward_lstm_1/while/cond/_19/sequential_1/bidirectional_1/forward_lstm_1/while/LogicalAnd", "op": "LogicalAnd", "input": ["StatefulPartitionedCall/sequential_1/bidirectional_1/forward_lstm_1/while/cond/_19/sequential_1/bidirectional_1/forward_lstm_1/while/Less_1", "StatefulPartitionedCall/sequential_1/bidirectional_1/forward_lstm_1/while/cond/_19/sequential_1/bidirectional_1/forward_lstm_1/while/Less"]}, {"name": "StatefulPartitionedCall/sequential_1/bidirectional_1/backward_lstm_1/while/cond/_63/sequential_1/bidirectional_1/backward_lstm_1/while/LogicalAnd", "op": "LogicalAnd", "input": ["StatefulPartitionedCall/sequential_1/bidirectional_1/backward_lstm_1/while/cond/_63/sequential_1/bidirectional_1/backward_lstm_1/while/Less_1", "StatefulPartitionedCall/sequential_1/bidirectional_1/backward_lstm_1/while/cond/_63/sequential_1/bidirectional_1/backward_lstm_1/while/Less"]}, {"name": "StatefulPartitionedCall/sequential_1/bidirectional_1/forward_lstm_1/while/LoopCond/_39", "op": "LoopCond", "input": ["StatefulPartitionedCall/sequential_1/bidirectional_1/forward_lstm_1/while/cond/_19/sequential_1/bidirectional_1/forward_lstm_1/while/LogicalAnd"]}, {"name": "StatefulPartitionedCall/sequential_1/bidirectional_1/backward_lstm_1/while/LoopCond/_83", "op": "LoopCond", "input": ["StatefulPartitionedCall/sequential_1/bidirectional_1/backward_lstm_1/while/cond/_63/sequential_1/bidirectional_1/backward_lstm_1/while/LogicalAnd"]}, {"name": "StatefulPartitionedCall/sequential_1/bidirectional_1/forward_lstm_1/while/StatefulPartitionedCall/sequential_1/bidirectional_1/forward_lstm_1/Max_switch/_41", "op": "Switch", "input": ["StatefulPartitionedCall/sequential_1/bidirectional_1/forward_lstm_1/while/merge/_33", "StatefulPartitionedCall/sequential_1/bidirectional_1/forward_lstm_1/while/LoopCond/_39"], "attr": {"T": {"type": "DT_INT32"}}}, {"name": "StatefulPartitionedCall/sequential_1/bidirectional_1/forward_lstm_1/while/StatefulPartitionedCall/sequential_1/bidirectional_1/forward_lstm_1/while/loop_counter_switch/_40", "op": "Switch", "input": ["StatefulPartitionedCall/sequential_1/bidirectional_1/forward_lstm_1/while/merge/_32", "StatefulPartitionedCall/sequential_1/bidirectional_1/forward_lstm_1/while/LoopCond/_39"], "attr": {"T": {"type": "DT_INT32"}}}, {"name": "StatefulPartitionedCall/sequential_1/bidirectional_1/forward_lstm_1/while/StatefulPartitionedCall/sequential_1/bidirectional_1/forward_lstm_1/zeros_1_switch/_45", "op": "Switch", "input": ["StatefulPartitionedCall/sequential_1/bidirectional_1/forward_lstm_1/while/merge/_37", "StatefulPartitionedCall/sequential_1/bidirectional_1/forward_lstm_1/while/LoopCond/_39"], "attr": {"T": {"type": "DT_FLOAT"}}}, {"name": "StatefulPartitionedCall/sequential_1/bidirectional_1/forward_lstm_1/while/StatefulPartitionedCall/sequential_1/bidirectional_1/forward_lstm_1/TensorArrayUnstack/TensorListFromTensor_switch/_46", "op": "Switch", "input": ["StatefulPartitionedCall/sequential_1/bidirectional_1/forward_lstm_1/while/merge/_38", "StatefulPartitionedCall/sequential_1/bidirectional_1/forward_lstm_1/while/LoopCond/_39"], "attr": {"_has_manual_control_dependencies": {"b": true}, "T": {"type": "DT_VARIANT"}}}, {"name": "StatefulPartitionedCall/sequential_1/bidirectional_1/forward_lstm_1/while/StatefulPartitionedCall/sequential_1/bidirectional_1/forward_lstm_1/time_switch/_42", "op": "Switch", "input": ["StatefulPartitionedCall/sequential_1/bidirectional_1/forward_lstm_1/while/merge/_34", "StatefulPartitionedCall/sequential_1/bidirectional_1/forward_lstm_1/while/LoopCond/_39"], "attr": {"T": {"type": "DT_INT32"}}}, {"name": "StatefulPartitionedCall/sequential_1/bidirectional_1/forward_lstm_1/while/StatefulPartitionedCall/sequential_1/bidirectional_1/forward_lstm_1/zeros_switch/_44", "op": "Switch", "input": ["StatefulPartitionedCall/sequential_1/bidirectional_1/forward_lstm_1/while/merge/_36", "StatefulPartitionedCall/sequential_1/bidirectional_1/forward_lstm_1/while/LoopCond/_39"], "attr": {"T": {"type": "DT_FLOAT"}}}, {"name": "StatefulPartitionedCall/sequential_1/bidirectional_1/forward_lstm_1/while/StatefulPartitionedCall/sequential_1/bidirectional_1/forward_lstm_1/TensorArrayV2_1_switch/_43", "op": "Switch", "input": ["StatefulPartitionedCall/sequential_1/bidirectional_1/forward_lstm_1/while/merge/_35", "StatefulPartitionedCall/sequential_1/bidirectional_1/forward_lstm_1/while/LoopCond/_39"], "attr": {"_has_manual_control_dependencies": {"b": true}, "T": {"type": "DT_VARIANT"}}}, {"name": "StatefulPartitionedCall/sequential_1/bidirectional_1/backward_lstm_1/while/StatefulPartitionedCall/sequential_1/bidirectional_1/backward_lstm_1/Max_switch/_85", "op": "Switch", "input": ["StatefulPartitionedCall/sequential_1/bidirectional_1/backward_lstm_1/while/merge/_77", "StatefulPartitionedCall/sequential_1/bidirectional_1/backward_lstm_1/while/LoopCond/_83"], "attr": {"_has_manual_control_dependencies": {"b": true}, "T": {"type": "DT_INT32"}}}, {"name": "StatefulPartitionedCall/sequential_1/bidirectional_1/backward_lstm_1/while/StatefulPartitionedCall/sequential_1/bidirectional_1/backward_lstm_1/while/loop_counter_switch/_84", "op": "Switch", "input": ["StatefulPartitionedCall/sequential_1/bidirectional_1/backward_lstm_1/while/merge/_76", "StatefulPartitionedCall/sequential_1/bidirectional_1/backward_lstm_1/while/LoopCond/_83"], "attr": {"_has_manual_control_dependencies": {"b": true}, "T": {"type": "DT_INT32"}}}, {"name": "StatefulPartitionedCall/sequential_1/bidirectional_1/backward_lstm_1/while/StatefulPartitionedCall/sequential_1/bidirectional_1/backward_lstm_1/zeros_1_switch/_89", "op": "Switch", "input": ["StatefulPartitionedCall/sequential_1/bidirectional_1/backward_lstm_1/while/merge/_81", "StatefulPartitionedCall/sequential_1/bidirectional_1/backward_lstm_1/while/LoopCond/_83"], "attr": {"T": {"type": "DT_FLOAT"}}}, {"name": "StatefulPartitionedCall/sequential_1/bidirectional_1/backward_lstm_1/while/StatefulPartitionedCall/sequential_1/bidirectional_1/backward_lstm_1/TensorArrayUnstack/TensorListFromTensor_switch/_90", "op": "Switch", "input": ["StatefulPartitionedCall/sequential_1/bidirectional_1/backward_lstm_1/while/merge/_82", "StatefulPartitionedCall/sequential_1/bidirectional_1/backward_lstm_1/while/LoopCond/_83"], "attr": {"T": {"type": "DT_VARIANT"}}}, {"name": "StatefulPartitionedCall/sequential_1/bidirectional_1/backward_lstm_1/while/StatefulPartitionedCall/sequential_1/bidirectional_1/backward_lstm_1/time_switch/_86", "op": "Switch", "input": ["StatefulPartitionedCall/sequential_1/bidirectional_1/backward_lstm_1/while/merge/_78", "StatefulPartitionedCall/sequential_1/bidirectional_1/backward_lstm_1/while/LoopCond/_83"], "attr": {"T": {"type": "DT_INT32"}}}, {"name": "StatefulPartitionedCall/sequential_1/bidirectional_1/backward_lstm_1/while/StatefulPartitionedCall/sequential_1/bidirectional_1/backward_lstm_1/zeros_switch/_88", "op": "Switch", "input": ["StatefulPartitionedCall/sequential_1/bidirectional_1/backward_lstm_1/while/merge/_80", "StatefulPartitionedCall/sequential_1/bidirectional_1/backward_lstm_1/while/LoopCond/_83"], "attr": {"T": {"type": "DT_FLOAT"}}}, {"name": "StatefulPartitionedCall/sequential_1/bidirectional_1/backward_lstm_1/while/StatefulPartitionedCall/sequential_1/bidirectional_1/backward_lstm_1/TensorArrayV2_1_switch/_87", "op": "Switch", "input": ["StatefulPartitionedCall/sequential_1/bidirectional_1/backward_lstm_1/while/merge/_79", "StatefulPartitionedCall/sequential_1/bidirectional_1/backward_lstm_1/while/LoopCond/_83"], "attr": {"T": {"type": "DT_VARIANT"}}}, {"name": "StatefulPartitionedCall/sequential_1/bidirectional_1/forward_lstm_1/while/exit/_49", "op": "Exit", "input": ["StatefulPartitionedCall/sequential_1/bidirectional_1/forward_lstm_1/while/StatefulPartitionedCall/sequential_1/bidirectional_1/forward_lstm_1/Max_switch/_41"], "attr": {"_has_manual_control_dependencies": {"b": true}, "T": {"type": "DT_INT32"}}}, {"name": "StatefulPartitionedCall/sequential_1/bidirectional_1/forward_lstm_1/while/exit/_48", "op": "Exit", "input": ["StatefulPartitionedCall/sequential_1/bidirectional_1/forward_lstm_1/while/StatefulPartitionedCall/sequential_1/bidirectional_1/forward_lstm_1/while/loop_counter_switch/_40"], "attr": {"_has_manual_control_dependencies": {"b": true}, "T": {"type": "DT_INT32"}}}, {"name": "StatefulPartitionedCall/sequential_1/bidirectional_1/forward_lstm_1/while/loop_body_control/_47", "op": "Identity", "input": ["StatefulPartitionedCall/sequential_1/bidirectional_1/forward_lstm_1/while/StatefulPartitionedCall/sequential_1/bidirectional_1/forward_lstm_1/while/loop_counter_switch/_40:1"], "attr": {"_has_manual_control_dependencies": {"b": true}, "T": {"type": "DT_INT32"}}}, {"name": "StatefulPartitionedCall/sequential_1/bidirectional_1/forward_lstm_1/while/exit/_53", "op": "Exit", "input": ["StatefulPartitionedCall/sequential_1/bidirectional_1/forward_lstm_1/while/StatefulPartitionedCall/sequential_1/bidirectional_1/forward_lstm_1/zeros_1_switch/_45"], "attr": {"_has_manual_control_dependencies": {"b": true}, "T": {"type": "DT_FLOAT"}}}, {"name": "StatefulPartitionedCall/sequential_1/bidirectional_1/forward_lstm_1/while/exit/_54", "op": "Exit", "input": ["StatefulPartitionedCall/sequential_1/bidirectional_1/forward_lstm_1/while/StatefulPartitionedCall/sequential_1/bidirectional_1/forward_lstm_1/TensorArrayUnstack/TensorListFromTensor_switch/_46"], "attr": {"_has_manual_control_dependencies": {"b": true}, "T": {"type": "DT_VARIANT"}}}, {"name": "StatefulPartitionedCall/sequential_1/bidirectional_1/forward_lstm_1/while/exit/_50", "op": "Exit", "input": ["StatefulPartitionedCall/sequential_1/bidirectional_1/forward_lstm_1/while/StatefulPartitionedCall/sequential_1/bidirectional_1/forward_lstm_1/time_switch/_42"], "attr": {"_has_manual_control_dependencies": {"b": true}, "T": {"type": "DT_INT32"}}}, {"name": "StatefulPartitionedCall/sequential_1/bidirectional_1/forward_lstm_1/while/exit/_52", "op": "Exit", "input": ["StatefulPartitionedCall/sequential_1/bidirectional_1/forward_lstm_1/while/StatefulPartitionedCall/sequential_1/bidirectional_1/forward_lstm_1/zeros_switch/_44"], "attr": {"_has_manual_control_dependencies": {"b": true}, "T": {"type": "DT_FLOAT"}}}, {"name": "StatefulPartitionedCall/sequential_1/bidirectional_1/forward_lstm_1/while/exit/_51", "op": "Exit", "input": ["StatefulPartitionedCall/sequential_1/bidirectional_1/forward_lstm_1/while/StatefulPartitionedCall/sequential_1/bidirectional_1/forward_lstm_1/TensorArrayV2_1_switch/_43"], "attr": {"_has_manual_control_dependencies": {"b": true}, "T": {"type": "DT_VARIANT"}}}, {"name": "StatefulPartitionedCall/sequential_1/bidirectional_1/backward_lstm_1/while/exit/_93", "op": "Exit", "input": ["StatefulPartitionedCall/sequential_1/bidirectional_1/backward_lstm_1/while/StatefulPartitionedCall/sequential_1/bidirectional_1/backward_lstm_1/Max_switch/_85"], "attr": {"_has_manual_control_dependencies": {"b": true}, "T": {"type": "DT_INT32"}}}, {"name": "StatefulPartitionedCall/sequential_1/bidirectional_1/backward_lstm_1/while/exit/_92", "op": "Exit", "input": ["StatefulPartitionedCall/sequential_1/bidirectional_1/backward_lstm_1/while/StatefulPartitionedCall/sequential_1/bidirectional_1/backward_lstm_1/while/loop_counter_switch/_84"], "attr": {"_has_manual_control_dependencies": {"b": true}, "T": {"type": "DT_INT32"}}}, {"name": "StatefulPartitionedCall/sequential_1/bidirectional_1/backward_lstm_1/while/loop_body_control/_91", "op": "Identity", "input": ["StatefulPartitionedCall/sequential_1/bidirectional_1/backward_lstm_1/while/StatefulPartitionedCall/sequential_1/bidirectional_1/backward_lstm_1/while/loop_counter_switch/_84:1"], "attr": {"_has_manual_control_dependencies": {"b": true}, "T": {"type": "DT_INT32"}}}, {"name": "StatefulPartitionedCall/sequential_1/bidirectional_1/backward_lstm_1/while/exit/_97", "op": "Exit", "input": ["StatefulPartitionedCall/sequential_1/bidirectional_1/backward_lstm_1/while/StatefulPartitionedCall/sequential_1/bidirectional_1/backward_lstm_1/zeros_1_switch/_89"], "attr": {"_has_manual_control_dependencies": {"b": true}, "T": {"type": "DT_FLOAT"}}}, {"name": "StatefulPartitionedCall/sequential_1/bidirectional_1/backward_lstm_1/while/exit/_98", "op": "Exit", "input": ["StatefulPartitionedCall/sequential_1/bidirectional_1/backward_lstm_1/while/StatefulPartitionedCall/sequential_1/bidirectional_1/backward_lstm_1/TensorArrayUnstack/TensorListFromTensor_switch/_90"], "attr": {"_has_manual_control_dependencies": {"b": true}, "T": {"type": "DT_VARIANT"}}}, {"name": "StatefulPartitionedCall/sequential_1/bidirectional_1/backward_lstm_1/while/exit/_94", "op": "Exit", "input": ["StatefulPartitionedCall/sequential_1/bidirectional_1/backward_lstm_1/while/StatefulPartitionedCall/sequential_1/bidirectional_1/backward_lstm_1/time_switch/_86"], "attr": {"_has_manual_control_dependencies": {"b": true}, "T": {"type": "DT_INT32"}}}, {"name": "StatefulPartitionedCall/sequential_1/bidirectional_1/backward_lstm_1/while/exit/_96", "op": "Exit", "input": ["StatefulPartitionedCall/sequential_1/bidirectional_1/backward_lstm_1/while/StatefulPartitionedCall/sequential_1/bidirectional_1/backward_lstm_1/zeros_switch/_88"], "attr": {"_has_manual_control_dependencies": {"b": true}, "T": {"type": "DT_FLOAT"}}}, {"name": "StatefulPartitionedCall/sequential_1/bidirectional_1/backward_lstm_1/while/exit/_95", "op": "Exit", "input": ["StatefulPartitionedCall/sequential_1/bidirectional_1/backward_lstm_1/while/StatefulPartitionedCall/sequential_1/bidirectional_1/backward_lstm_1/TensorArrayV2_1_switch/_87"], "attr": {"_has_manual_control_dependencies": {"b": true}, "T": {"type": "DT_VARIANT"}}}, {"name": "Func/StatefulPartitionedCall/sequential_1/bidirectional_1/forward_lstm_1/while/body/_20/input_control_node/_207", "op": "NoOp", "input": ["^StatefulPartitionedCall/sequential_1/bidirectional_1/forward_lstm_1/while/StatefulPartitionedCall/sequential_1/bidirectional_1/forward_lstm_1/Max_switch/_41", "^StatefulPartitionedCall/sequential_1/bidirectional_1/forward_lstm_1/while/StatefulPartitionedCall/sequential_1/bidirectional_1/forward_lstm_1/TensorArrayUnstack/TensorListFromTensor_switch/_46", "^StatefulPartitionedCall/sequential_1/bidirectional_1/forward_lstm_1/while/StatefulPartitionedCall/sequential_1/bidirectional_1/forward_lstm_1/TensorArrayV2_1_switch/_43", "^StatefulPartitionedCall/sequential_1/bidirectional_1/forward_lstm_1/while/StatefulPartitionedCall/sequential_1/bidirectional_1/forward_lstm_1/time_switch/_42", "^StatefulPartitionedCall/sequential_1/bidirectional_1/forward_lstm_1/while/loop_body_control/_47", "^StatefulPartitionedCall/sequential_1/bidirectional_1/forward_lstm_1/while/StatefulPartitionedCall/sequential_1/bidirectional_1/forward_lstm_1/zeros_1_switch/_45", "^StatefulPartitionedCall/sequential_1/bidirectional_1/forward_lstm_1/while/StatefulPartitionedCall/sequential_1/bidirectional_1/forward_lstm_1/zeros_switch/_44", "^StatefulPartitionedCall/sequential_1/bidirectional_1/forward_lstm_1/while/enter/_28", "^StatefulPartitionedCall/sequential_1/bidirectional_1/forward_lstm_1/while/enter/_29", "^StatefulPartitionedCall/sequential_1/bidirectional_1/forward_lstm_1/while/enter/_30"], "attr": {"_has_manual_control_dependencies": {"b": true}}}, {"name": "StatefulPartitionedCall/sequential_1/bidirectional_1/forward_lstm_1/TensorArrayV2Stack/TensorListStack", "op": "TensorListStack", "input": ["StatefulPartitionedCall/sequential_1/bidirectional_1/forward_lstm_1/while/exit/_51", "StatefulPartitionedCall/sequential_1/bidirectional_1/forward_lstm_1/TensorArrayV2Stack/TensorListStack/element_shape"], "attr": {"num_elements": {"i": "5"}, "element_dtype": {"type": "DT_FLOAT"}}}, {"name": "Func/StatefulPartitionedCall/sequential_1/bidirectional_1/backward_lstm_1/while/body/_64/input_control_node/_241", "op": "NoOp", "input": ["^StatefulPartitionedCall/sequential_1/bidirectional_1/backward_lstm_1/while/StatefulPartitionedCall/sequential_1/bidirectional_1/backward_lstm_1/Max_switch/_85", "^StatefulPartitionedCall/sequential_1/bidirectional_1/backward_lstm_1/while/StatefulPartitionedCall/sequential_1/bidirectional_1/backward_lstm_1/TensorArrayUnstack/TensorListFromTensor_switch/_90", "^StatefulPartitionedCall/sequential_1/bidirectional_1/backward_lstm_1/while/StatefulPartitionedCall/sequential_1/bidirectional_1/backward_lstm_1/TensorArrayV2_1_switch/_87", "^StatefulPartitionedCall/sequential_1/bidirectional_1/backward_lstm_1/while/StatefulPartitionedCall/sequential_1/bidirectional_1/backward_lstm_1/time_switch/_86", "^StatefulPartitionedCall/sequential_1/bidirectional_1/backward_lstm_1/while/loop_body_control/_91", "^StatefulPartitionedCall/sequential_1/bidirectional_1/backward_lstm_1/while/StatefulPartitionedCall/sequential_1/bidirectional_1/backward_lstm_1/zeros_1_switch/_89", "^StatefulPartitionedCall/sequential_1/bidirectional_1/backward_lstm_1/while/StatefulPartitionedCall/sequential_1/bidirectional_1/backward_lstm_1/zeros_switch/_88", "^StatefulPartitionedCall/sequential_1/bidirectional_1/backward_lstm_1/while/enter/_72", "^StatefulPartitionedCall/sequential_1/bidirectional_1/backward_lstm_1/while/enter/_73", "^StatefulPartitionedCall/sequential_1/bidirectional_1/backward_lstm_1/while/enter/_74"], "attr": {"_has_manual_control_dependencies": {"b": true}}}, {"name": "StatefulPartitionedCall/sequential_1/bidirectional_1/backward_lstm_1/TensorArrayV2Stack/TensorListStack", "op": "TensorListStack", "input": ["StatefulPartitionedCall/sequential_1/bidirectional_1/backward_lstm_1/while/exit/_95", "StatefulPartitionedCall/sequential_1/bidirectional_1/backward_lstm_1/TensorArrayV2Stack/TensorListStack/element_shape"], "attr": {"num_elements": {"i": "5"}, "element_dtype": {"type": "DT_FLOAT"}}}, {"name": "StatefulPartitionedCall/sequential_1/bidirectional_1/forward_lstm_1/while/body/_20/sequential_1/bidirectional_1/forward_lstm_1/while/add_1/y", "op": "Const", "input": ["^Func/StatefulPartitionedCall/sequential_1/bidirectional_1/forward_lstm_1/while/body/_20/input_control_node/_207"], "attr": {"value": {"tensor": {"dtype": "DT_INT32", "tensorShape": {}}}, "dtype": {"type": "DT_INT32"}}}, {"name": "StatefulPartitionedCall/sequential_1/bidirectional_1/forward_lstm_1/while/body/_20/sequential_1/bidirectional_1/forward_lstm_1/while/lstm_cell_1/split/split_dim", "op": "Const", "input": ["^Func/StatefulPartitionedCall/sequential_1/bidirectional_1/forward_lstm_1/while/body/_20/input_control_node/_207"], "attr": {"value": {"tensor": {"dtype": "DT_INT32", "tensorShape": {}}}, "dtype": {"type": "DT_INT32"}}}, {"name": "StatefulPartitionedCall/sequential_1/bidirectional_1/forward_lstm_1/while/body/_20/sequential_1/bidirectional_1/forward_lstm_1/while/add/y", "op": "Const", "input": ["^Func/StatefulPartitionedCall/sequential_1/bidirectional_1/forward_lstm_1/while/body/_20/input_control_node/_207"], "attr": {"value": {"tensor": {"dtype": "DT_INT32", "tensorShape": {}}}, "dtype": {"type": "DT_INT32"}}}, {"name": "Func/StatefulPartitionedCall/sequential_1/bidirectional_1/forward_lstm_1/while/body/_20/input/_210", "op": "Identity", "input": ["StatefulPartitionedCall/sequential_1/bidirectional_1/forward_lstm_1/while/StatefulPartitionedCall/sequential_1/bidirectional_1/forward_lstm_1/time_switch/_42:1", "^Func/StatefulPartitionedCall/sequential_1/bidirectional_1/forward_lstm_1/while/body/_20/input_control_node/_207"], "attr": {"T": {"type": "DT_INT32"}}}, {"name": "StatefulPartitionedCall/sequential_1/bidirectional_1/forward_lstm_1/while/body/_20/sequential_1/bidirectional_1/forward_lstm_1/while/TensorArrayV2Read/TensorListGetItem/element_shape", "op": "Const", "input": ["^Func/StatefulPartitionedCall/sequential_1/bidirectional_1/forward_lstm_1/while/body/_20/input_control_node/_207"], "attr": {"value": {"tensor": {"dtype": "DT_INT32", "tensorShape": {"dim": [{"size": "2"}]}}}, "dtype": {"type": "DT_INT32"}}}, {"name": "StatefulPartitionedCall/sequential_1/bidirectional_1/forward_lstm_1/while/body/_20/sequential_1/bidirectional_1/forward_lstm_1/while/lstm_cell_1/Cast/ReadVariableOp", "op": "Const", "input": ["^StatefulPartitionedCall/sequential_1/bidirectional_1/forward_lstm_1/while/enter/_28", "^Func/StatefulPartitionedCall/sequential_1/bidirectional_1/forward_lstm_1/while/body/_20/input_control_node/_207"], "attr": {"value": {"tensor": {"dtype": "DT_FLOAT", "tensorShape": {"dim": [{"size": "6"}, {"size": "512"}]}}}, "dtype": {"type": "DT_FLOAT"}}}, {"name": "StatefulPartitionedCall/sequential_1/bidirectional_1/forward_lstm_1/while/body/_20/sequential_1/bidirectional_1/forward_lstm_1/while/lstm_cell_1/Cast_1/ReadVariableOp", "op": "Const", "input": ["^StatefulPartitionedCall/sequential_1/bidirectional_1/forward_lstm_1/while/enter/_29", "^Func/StatefulPartitionedCall/sequential_1/bidirectional_1/forward_lstm_1/while/body/_20/input_control_node/_207"], "attr": {"value": {"tensor": {"dtype": "DT_FLOAT", "tensorShape": {"dim": [{"size": "128"}, {"size": "512"}]}}}, "dtype": {"type": "DT_FLOAT"}}}, {"name": "StatefulPartitionedCall/sequential_1/bidirectional_1/forward_lstm_1/while/body/_20/sequential_1/bidirectional_1/forward_lstm_1/while/lstm_cell_1/add_1/ReadVariableOp", "op": "Const", "input": ["^StatefulPartitionedCall/sequential_1/bidirectional_1/forward_lstm_1/while/enter/_30", "^Func/StatefulPartitionedCall/sequential_1/bidirectional_1/forward_lstm_1/while/body/_20/input_control_node/_207"], "attr": {"value": {"tensor": {"dtype": "DT_FLOAT", "tensorShape": {"dim": [{"size": "512"}]}}}, "dtype": {"type": "DT_FLOAT"}}}, {"name": "StatefulPartitionedCall/sequential_1/bidirectional_1/forward_lstm_1/transpose_1", "op": "Transpose", "input": ["StatefulPartitionedCall/sequential_1/bidirectional_1/forward_lstm_1/TensorArrayV2Stack/TensorListStack", "StatefulPartitionedCall/sequential_1/bidirectional_1/forward_lstm_1/transpose_1/perm"], "attr": {"Tperm": {"type": "DT_INT32"}, "T": {"type": "DT_FLOAT"}}}, {"name": "StatefulPartitionedCall/sequential_1/bidirectional_1/backward_lstm_1/while/body/_64/sequential_1/bidirectional_1/backward_lstm_1/while/add_1/y", "op": "Const", "input": ["^Func/StatefulPartitionedCall/sequential_1/bidirectional_1/backward_lstm_1/while/body/_64/input_control_node/_241"], "attr": {"value": {"tensor": {"dtype": "DT_INT32", "tensorShape": {}}}, "dtype": {"type": "DT_INT32"}}}, {"name": "StatefulPartitionedCall/sequential_1/bidirectional_1/backward_lstm_1/while/body/_64/sequential_1/bidirectional_1/backward_lstm_1/while/lstm_cell_1/split/split_dim", "op": "Const", "input": ["^Func/StatefulPartitionedCall/sequential_1/bidirectional_1/backward_lstm_1/while/body/_64/input_control_node/_241"], "attr": {"value": {"tensor": {"dtype": "DT_INT32", "tensorShape": {}}}, "dtype": {"type": "DT_INT32"}}}, {"name": "StatefulPartitionedCall/sequential_1/bidirectional_1/backward_lstm_1/while/body/_64/sequential_1/bidirectional_1/backward_lstm_1/while/add/y", "op": "Const", "input": ["^Func/StatefulPartitionedCall/sequential_1/bidirectional_1/backward_lstm_1/while/body/_64/input_control_node/_241"], "attr": {"value": {"tensor": {"dtype": "DT_INT32", "tensorShape": {}}}, "dtype": {"type": "DT_INT32"}}}, {"name": "Func/StatefulPartitionedCall/sequential_1/bidirectional_1/backward_lstm_1/while/body/_64/input/_244", "op": "Identity", "input": ["StatefulPartitionedCall/sequential_1/bidirectional_1/backward_lstm_1/while/StatefulPartitionedCall/sequential_1/bidirectional_1/backward_lstm_1/time_switch/_86:1", "^Func/StatefulPartitionedCall/sequential_1/bidirectional_1/backward_lstm_1/while/body/_64/input_control_node/_241"], "attr": {"T": {"type": "DT_INT32"}}}, {"name": "StatefulPartitionedCall/sequential_1/bidirectional_1/backward_lstm_1/while/body/_64/sequential_1/bidirectional_1/backward_lstm_1/while/TensorArrayV2Read/TensorListGetItem/element_shape", "op": "Const", "input": ["^Func/StatefulPartitionedCall/sequential_1/bidirectional_1/backward_lstm_1/while/body/_64/input_control_node/_241"], "attr": {"value": {"tensor": {"dtype": "DT_INT32", "tensorShape": {"dim": [{"size": "2"}]}}}, "dtype": {"type": "DT_INT32"}}}, {"name": "StatefulPartitionedCall/sequential_1/bidirectional_1/backward_lstm_1/while/body/_64/sequential_1/bidirectional_1/backward_lstm_1/while/lstm_cell_1/Cast/ReadVariableOp", "op": "Const", "input": ["^StatefulPartitionedCall/sequential_1/bidirectional_1/backward_lstm_1/while/enter/_72", "^Func/StatefulPartitionedCall/sequential_1/bidirectional_1/backward_lstm_1/while/body/_64/input_control_node/_241"], "attr": {"value": {"tensor": {"dtype": "DT_FLOAT", "tensorShape": {"dim": [{"size": "6"}, {"size": "512"}]}}}, "dtype": {"type": "DT_FLOAT"}}}, {"name": "StatefulPartitionedCall/sequential_1/bidirectional_1/backward_lstm_1/while/body/_64/sequential_1/bidirectional_1/backward_lstm_1/while/lstm_cell_1/Cast_1/ReadVariableOp", "op": "Const", "input": ["^StatefulPartitionedCall/sequential_1/bidirectional_1/backward_lstm_1/while/enter/_73", "^Func/StatefulPartitionedCall/sequential_1/bidirectional_1/backward_lstm_1/while/body/_64/input_control_node/_241"], "attr": {"value": {"tensor": {"dtype": "DT_FLOAT", "tensorShape": {"dim": [{"size": "128"}, {"size": "512"}]}}}, "dtype": {"type": "DT_FLOAT"}}}, {"name": "StatefulPartitionedCall/sequential_1/bidirectional_1/backward_lstm_1/while/body/_64/sequential_1/bidirectional_1/backward_lstm_1/while/lstm_cell_1/add_1/ReadVariableOp", "op": "Const", "input": ["^StatefulPartitionedCall/sequential_1/bidirectional_1/backward_lstm_1/while/enter/_74", "^Func/StatefulPartitionedCall/sequential_1/bidirectional_1/backward_lstm_1/while/body/_64/input_control_node/_241"], "attr": {"value": {"tensor": {"dtype": "DT_FLOAT", "tensorShape": {"dim": [{"size": "512"}]}}}, "dtype": {"type": "DT_FLOAT"}}}, {"name": "StatefulPartitionedCall/sequential_1/bidirectional_1/backward_lstm_1/transpose_1", "op": "Transpose", "input": ["StatefulPartitionedCall/sequential_1/bidirectional_1/backward_lstm_1/TensorArrayV2Stack/TensorListStack", "StatefulPartitionedCall/sequential_1/bidirectional_1/backward_lstm_1/transpose_1/perm"], "attr": {"Tperm": {"type": "DT_INT32"}, "T": {"type": "DT_FLOAT"}}}, {"name": "StatefulPartitionedCall/sequential_1/bidirectional_1/forward_lstm_1/while/body/_20/sequential_1/bidirectional_1/forward_lstm_1/while/add_1", "op": "AddV2", "input": ["StatefulPartitionedCall/sequential_1/bidirectional_1/forward_lstm_1/while/StatefulPartitionedCall/sequential_1/bidirectional_1/forward_lstm_1/while/loop_counter_switch/_40:1", "StatefulPartitionedCall/sequential_1/bidirectional_1/forward_lstm_1/while/body/_20/sequential_1/bidirectional_1/forward_lstm_1/while/add_1/y"], "attr": {"T": {"type": "DT_INT32"}}}, {"name": "StatefulPartitionedCall/sequential_1/bidirectional_1/forward_lstm_1/while/body/_20/sequential_1/bidirectional_1/forward_lstm_1/while/add", "op": "AddV2", "input": ["Func/StatefulPartitionedCall/sequential_1/bidirectional_1/forward_lstm_1/while/body/_20/input/_210", "StatefulPartitionedCall/sequential_1/bidirectional_1/forward_lstm_1/while/body/_20/sequential_1/bidirectional_1/forward_lstm_1/while/add/y"], "attr": {"T": {"type": "DT_INT32"}}}, {"name": "StatefulPartitionedCall/sequential_1/bidirectional_1/forward_lstm_1/while/body/_20/sequential_1/bidirectional_1/forward_lstm_1/while/TensorArrayV2Read/TensorListGetItem", "op": "TensorListGetItem", "input": ["StatefulPartitionedCall/sequential_1/bidirectional_1/forward_lstm_1/while/StatefulPartitionedCall/sequential_1/bidirectional_1/forward_lstm_1/TensorArrayUnstack/TensorListFromTensor_switch/_46:1", "Func/StatefulPartitionedCall/sequential_1/bidirectional_1/forward_lstm_1/while/body/_20/input/_210", "StatefulPartitionedCall/sequential_1/bidirectional_1/forward_lstm_1/while/body/_20/sequential_1/bidirectional_1/forward_lstm_1/while/TensorArrayV2Read/TensorListGetItem/element_shape"], "attr": {"element_dtype": {"type": "DT_FLOAT"}}}, {"name": "StatefulPartitionedCall/sequential_1/bidirectional_1/forward_lstm_1/while/body/_20/sequential_1/bidirectional_1/forward_lstm_1/while/lstm_cell_1/MatMul_1", "op": "MatMul", "input": ["StatefulPartitionedCall/sequential_1/bidirectional_1/forward_lstm_1/while/StatefulPartitionedCall/sequential_1/bidirectional_1/forward_lstm_1/zeros_switch/_44:1", "StatefulPartitionedCall/sequential_1/bidirectional_1/forward_lstm_1/while/body/_20/sequential_1/bidirectional_1/forward_lstm_1/while/lstm_cell_1/Cast_1/ReadVariableOp"], "device": "/device:CPU:0", "attr": {"grad_a": {"b": false}, "transpose_a": {"b": false}, "T": {"type": "DT_FLOAT"}, "grad_b": {"b": false}, "transpose_b": {"b": false}}}, {"name": "Func/StatefulPartitionedCall/sequential_1/bidirectional_1/forward_lstm_1/while/body/_20/output_control_node/_228", "op": "NoOp", "input": ["^StatefulPartitionedCall/sequential_1/bidirectional_1/forward_lstm_1/while/body/_20/sequential_1/bidirectional_1/forward_lstm_1/while/lstm_cell_1/Cast/ReadVariableOp", "^StatefulPartitionedCall/sequential_1/bidirectional_1/forward_lstm_1/while/body/_20/sequential_1/bidirectional_1/forward_lstm_1/while/lstm_cell_1/Cast_1/ReadVariableOp", "^StatefulPartitionedCall/sequential_1/bidirectional_1/forward_lstm_1/while/body/_20/sequential_1/bidirectional_1/forward_lstm_1/while/lstm_cell_1/add_1/ReadVariableOp"], "attr": {"_has_manual_control_dependencies": {"b": true}}}, {"name": "StatefulPartitionedCall/sequential_1/bidirectional_1/forward_lstm_1/while/body/_20/sequential_1/bidirectional_1/forward_lstm_1/while/NoOp", "op": "NoOp", "input": ["^StatefulPartitionedCall/sequential_1/bidirectional_1/forward_lstm_1/while/body/_20/sequential_1/bidirectional_1/forward_lstm_1/while/lstm_cell_1/Cast/ReadVariableOp", "^StatefulPartitionedCall/sequential_1/bidirectional_1/forward_lstm_1/while/body/_20/sequential_1/bidirectional_1/forward_lstm_1/while/lstm_cell_1/Cast_1/ReadVariableOp", "^StatefulPartitionedCall/sequential_1/bidirectional_1/forward_lstm_1/while/body/_20/sequential_1/bidirectional_1/forward_lstm_1/while/lstm_cell_1/add_1/ReadVariableOp"], "attr": {"_has_manual_control_dependencies": {"b": true}}}, {"name": "StatefulPartitionedCall/sequential_1/bidirectional_1/backward_lstm_1/while/body/_64/sequential_1/bidirectional_1/backward_lstm_1/while/add_1", "op": "AddV2", "input": ["StatefulPartitionedCall/sequential_1/bidirectional_1/backward_lstm_1/while/StatefulPartitionedCall/sequential_1/bidirectional_1/backward_lstm_1/while/loop_counter_switch/_84:1", "StatefulPartitionedCall/sequential_1/bidirectional_1/backward_lstm_1/while/body/_64/sequential_1/bidirectional_1/backward_lstm_1/while/add_1/y"], "attr": {"T": {"type": "DT_INT32"}}}, {"name": "StatefulPartitionedCall/sequential_1/bidirectional_1/backward_lstm_1/while/body/_64/sequential_1/bidirectional_1/backward_lstm_1/while/add", "op": "AddV2", "input": ["Func/StatefulPartitionedCall/sequential_1/bidirectional_1/backward_lstm_1/while/body/_64/input/_244", "StatefulPartitionedCall/sequential_1/bidirectional_1/backward_lstm_1/while/body/_64/sequential_1/bidirectional_1/backward_lstm_1/while/add/y"], "attr": {"T": {"type": "DT_INT32"}}}, {"name": "StatefulPartitionedCall/sequential_1/bidirectional_1/backward_lstm_1/while/body/_64/sequential_1/bidirectional_1/backward_lstm_1/while/TensorArrayV2Read/TensorListGetItem", "op": "TensorListGetItem", "input": ["StatefulPartitionedCall/sequential_1/bidirectional_1/backward_lstm_1/while/StatefulPartitionedCall/sequential_1/bidirectional_1/backward_lstm_1/TensorArrayUnstack/TensorListFromTensor_switch/_90:1", "Func/StatefulPartitionedCall/sequential_1/bidirectional_1/backward_lstm_1/while/body/_64/input/_244", "StatefulPartitionedCall/sequential_1/bidirectional_1/backward_lstm_1/while/body/_64/sequential_1/bidirectional_1/backward_lstm_1/while/TensorArrayV2Read/TensorListGetItem/element_shape"], "attr": {"element_dtype": {"type": "DT_FLOAT"}}}, {"name": "StatefulPartitionedCall/sequential_1/bidirectional_1/backward_lstm_1/while/body/_64/sequential_1/bidirectional_1/backward_lstm_1/while/lstm_cell_1/MatMul_1", "op": "MatMul", "input": ["StatefulPartitionedCall/sequential_1/bidirectional_1/backward_lstm_1/while/StatefulPartitionedCall/sequential_1/bidirectional_1/backward_lstm_1/zeros_switch/_88:1", "StatefulPartitionedCall/sequential_1/bidirectional_1/backward_lstm_1/while/body/_64/sequential_1/bidirectional_1/backward_lstm_1/while/lstm_cell_1/Cast_1/ReadVariableOp"], "device": "/device:CPU:0", "attr": {"grad_a": {"b": false}, "transpose_a": {"b": false}, "T": {"type": "DT_FLOAT"}, "grad_b": {"b": false}, "transpose_b": {"b": false}}}, {"name": "Func/StatefulPartitionedCall/sequential_1/bidirectional_1/backward_lstm_1/while/body/_64/output_control_node/_262", "op": "NoOp", "input": ["^StatefulPartitionedCall/sequential_1/bidirectional_1/backward_lstm_1/while/body/_64/sequential_1/bidirectional_1/backward_lstm_1/while/lstm_cell_1/Cast/ReadVariableOp", "^StatefulPartitionedCall/sequential_1/bidirectional_1/backward_lstm_1/while/body/_64/sequential_1/bidirectional_1/backward_lstm_1/while/lstm_cell_1/Cast_1/ReadVariableOp", "^StatefulPartitionedCall/sequential_1/bidirectional_1/backward_lstm_1/while/body/_64/sequential_1/bidirectional_1/backward_lstm_1/while/lstm_cell_1/add_1/ReadVariableOp"], "attr": {"_has_manual_control_dependencies": {"b": true}}}, {"name": "StatefulPartitionedCall/sequential_1/bidirectional_1/backward_lstm_1/while/body/_64/sequential_1/bidirectional_1/backward_lstm_1/while/NoOp", "op": "NoOp", "input": ["^StatefulPartitionedCall/sequential_1/bidirectional_1/backward_lstm_1/while/body/_64/sequential_1/bidirectional_1/backward_lstm_1/while/lstm_cell_1/Cast/ReadVariableOp", "^StatefulPartitionedCall/sequential_1/bidirectional_1/backward_lstm_1/while/body/_64/sequential_1/bidirectional_1/backward_lstm_1/while/lstm_cell_1/Cast_1/ReadVariableOp", "^StatefulPartitionedCall/sequential_1/bidirectional_1/backward_lstm_1/while/body/_64/sequential_1/bidirectional_1/backward_lstm_1/while/lstm_cell_1/add_1/ReadVariableOp"], "attr": {"_has_manual_control_dependencies": {"b": true}}}, {"name": "StatefulPartitionedCall/sequential_1/bidirectional_1/ReverseV2", "op": "ReverseV2", "input": ["StatefulPartitionedCall/sequential_1/bidirectional_1/backward_lstm_1/transpose_1", "StatefulPartitionedCall/sequential_1/bidirectional_1/ReverseV2/axis"], "attr": {"Tidx": {"type": "DT_INT32"}, "T": {"type": "DT_FLOAT"}}}, {"name": "StatefulPartitionedCall/sequential_1/bidirectional_1/forward_lstm_1/while/body/_20/sequential_1/bidirectional_1/forward_lstm_1/while/lstm_cell_1/add", "op": "AddV2", "input": ["StatefulPartitionedCall/sequential_1/bidirectional_1/forward_lstm_1/while/body/_20/sequential_1/bidirectional_1/forward_lstm_1/while/lstm_cell_1/add_1/ReadVariableOp", "StatefulPartitionedCall/sequential_1/bidirectional_1/forward_lstm_1/while/body/_20/sequential_1/bidirectional_1/forward_lstm_1/while/lstm_cell_1/MatMul_1"], "attr": {"T": {"type": "DT_FLOAT"}}}, {"name": "StatefulPartitionedCall/sequential_1/bidirectional_1/forward_lstm_1/while/next_iteration/_62", "op": "NextIteration", "input": ["StatefulPartitionedCall/sequential_1/bidirectional_1/forward_lstm_1/while/StatefulPartitionedCall/sequential_1/bidirectional_1/forward_lstm_1/TensorArrayUnstack/TensorListFromTensor_switch/_46:1", "^Func/StatefulPartitionedCall/sequential_1/bidirectional_1/forward_lstm_1/while/body/_20/output_control_node/_228", "^Func/StatefulPartitionedCall/sequential_1/bidirectional_1/forward_lstm_1/while/body/_20/input_control_node/_207"], "attr": {"T": {"type": "DT_VARIANT"}}}, {"name": "StatefulPartitionedCall/sequential_1/bidirectional_1/forward_lstm_1/while/next_iteration/_57", "op": "NextIteration", "input": ["StatefulPartitionedCall/sequential_1/bidirectional_1/forward_lstm_1/while/StatefulPartitionedCall/sequential_1/bidirectional_1/forward_lstm_1/Max_switch/_41:1", "^Func/StatefulPartitionedCall/sequential_1/bidirectional_1/forward_lstm_1/while/body/_20/output_control_node/_228", "^StatefulPartitionedCall/sequential_1/bidirectional_1/forward_lstm_1/while/body/_20/sequential_1/bidirectional_1/forward_lstm_1/while/NoOp", "^Func/StatefulPartitionedCall/sequential_1/bidirectional_1/forward_lstm_1/while/body/_20/input_control_node/_207"], "attr": {"T": {"type": "DT_INT32"}}}, {"name": "StatefulPartitionedCall/sequential_1/bidirectional_1/forward_lstm_1/while/next_iteration/_56", "op": "NextIteration", "input": ["StatefulPartitionedCall/sequential_1/bidirectional_1/forward_lstm_1/while/body/_20/sequential_1/bidirectional_1/forward_lstm_1/while/add_1", "^Func/StatefulPartitionedCall/sequential_1/bidirectional_1/forward_lstm_1/while/body/_20/output_control_node/_228", "^StatefulPartitionedCall/sequential_1/bidirectional_1/forward_lstm_1/while/body/_20/sequential_1/bidirectional_1/forward_lstm_1/while/NoOp"], "attr": {"T": {"type": "DT_INT32"}}}, {"name": "StatefulPartitionedCall/sequential_1/bidirectional_1/forward_lstm_1/while/next_iteration/_58", "op": "NextIteration", "input": ["StatefulPartitionedCall/sequential_1/bidirectional_1/forward_lstm_1/while/body/_20/sequential_1/bidirectional_1/forward_lstm_1/while/add", "^Func/StatefulPartitionedCall/sequential_1/bidirectional_1/forward_lstm_1/while/body/_20/output_control_node/_228", "^StatefulPartitionedCall/sequential_1/bidirectional_1/forward_lstm_1/while/body/_20/sequential_1/bidirectional_1/forward_lstm_1/while/NoOp"], "attr": {"T": {"type": "DT_INT32"}}}, {"name": "StatefulPartitionedCall/sequential_1/bidirectional_1/backward_lstm_1/while/body/_64/sequential_1/bidirectional_1/backward_lstm_1/while/lstm_cell_1/add", "op": "AddV2", "input": ["StatefulPartitionedCall/sequential_1/bidirectional_1/backward_lstm_1/while/body/_64/sequential_1/bidirectional_1/backward_lstm_1/while/lstm_cell_1/add_1/ReadVariableOp", "StatefulPartitionedCall/sequential_1/bidirectional_1/backward_lstm_1/while/body/_64/sequential_1/bidirectional_1/backward_lstm_1/while/lstm_cell_1/MatMul_1"], "attr": {"T": {"type": "DT_FLOAT"}}}, {"name": "StatefulPartitionedCall/sequential_1/bidirectional_1/backward_lstm_1/while/next_iteration/_106", "op": "NextIteration", "input": ["StatefulPartitionedCall/sequential_1/bidirectional_1/backward_lstm_1/while/StatefulPartitionedCall/sequential_1/bidirectional_1/backward_lstm_1/TensorArrayUnstack/TensorListFromTensor_switch/_90:1", "^Func/StatefulPartitionedCall/sequential_1/bidirectional_1/backward_lstm_1/while/body/_64/output_control_node/_262", "^Func/StatefulPartitionedCall/sequential_1/bidirectional_1/backward_lstm_1/while/body/_64/input_control_node/_241"], "attr": {"T": {"type": "DT_VARIANT"}}}, {"name": "StatefulPartitionedCall/sequential_1/bidirectional_1/backward_lstm_1/while/next_iteration/_101", "op": "NextIteration", "input": ["StatefulPartitionedCall/sequential_1/bidirectional_1/backward_lstm_1/while/StatefulPartitionedCall/sequential_1/bidirectional_1/backward_lstm_1/Max_switch/_85:1", "^Func/StatefulPartitionedCall/sequential_1/bidirectional_1/backward_lstm_1/while/body/_64/output_control_node/_262", "^StatefulPartitionedCall/sequential_1/bidirectional_1/backward_lstm_1/while/body/_64/sequential_1/bidirectional_1/backward_lstm_1/while/NoOp", "^Func/StatefulPartitionedCall/sequential_1/bidirectional_1/backward_lstm_1/while/body/_64/input_control_node/_241"], "attr": {"T": {"type": "DT_INT32"}}}, {"name": "StatefulPartitionedCall/sequential_1/bidirectional_1/backward_lstm_1/while/next_iteration/_100", "op": "NextIteration", "input": ["StatefulPartitionedCall/sequential_1/bidirectional_1/backward_lstm_1/while/body/_64/sequential_1/bidirectional_1/backward_lstm_1/while/add_1", "^Func/StatefulPartitionedCall/sequential_1/bidirectional_1/backward_lstm_1/while/body/_64/output_control_node/_262", "^StatefulPartitionedCall/sequential_1/bidirectional_1/backward_lstm_1/while/body/_64/sequential_1/bidirectional_1/backward_lstm_1/while/NoOp"], "attr": {"T": {"type": "DT_INT32"}}}, {"name": "StatefulPartitionedCall/sequential_1/bidirectional_1/backward_lstm_1/while/next_iteration/_102", "op": "NextIteration", "input": ["StatefulPartitionedCall/sequential_1/bidirectional_1/backward_lstm_1/while/body/_64/sequential_1/bidirectional_1/backward_lstm_1/while/add", "^Func/StatefulPartitionedCall/sequential_1/bidirectional_1/backward_lstm_1/while/body/_64/output_control_node/_262", "^StatefulPartitionedCall/sequential_1/bidirectional_1/backward_lstm_1/while/body/_64/sequential_1/bidirectional_1/backward_lstm_1/while/NoOp"], "attr": {"T": {"type": "DT_INT32"}}}, {"name": "StatefulPartitionedCall/sequential_1/bidirectional_1/concat", "op": "ConcatV2", "input": ["StatefulPartitionedCall/sequential_1/bidirectional_1/forward_lstm_1/transpose_1", "StatefulPartitionedCall/sequential_1/bidirectional_1/ReverseV2", "StatefulPartitionedCall/sequential_1/bidirectional_1/concat/axis"], "attr": {"N": {"i": "2"}, "Tidx": {"type": "DT_INT32"}, "T": {"type": "DT_FLOAT"}}}, {"name": "StatefulPartitionedCall/sequential_1/bidirectional_1/forward_lstm_1/while/body/_20/sequential_1/bidirectional_1/forward_lstm_1/while/lstm_cell_1/add_1", "op": "_FusedMatMul", "input": ["StatefulPartitionedCall/sequential_1/bidirectional_1/forward_lstm_1/while/body/_20/sequential_1/bidirectional_1/forward_lstm_1/while/TensorArrayV2Read/TensorListGetItem", "StatefulPartitionedCall/sequential_1/bidirectional_1/forward_lstm_1/while/body/_20/sequential_1/bidirectional_1/forward_lstm_1/while/lstm_cell_1/Cast/ReadVariableOp", "StatefulPartitionedCall/sequential_1/bidirectional_1/forward_lstm_1/while/body/_20/sequential_1/bidirectional_1/forward_lstm_1/while/lstm_cell_1/add"], "device": "/device:CPU:0", "attr": {"transpose_a": {"b": false}, "transpose_b": {"b": false}, "fused_ops": {"list": {"s": ["Qmlhc0FkZA=="]}}, "leakyrelu_alpha": {"f": 0.2}, "num_args": {"i": "1"}, "epsilon": {"f": 0.0}, "T": {"type": "DT_FLOAT"}}}, {"name": "StatefulPartitionedCall/sequential_1/bidirectional_1/backward_lstm_1/while/body/_64/sequential_1/bidirectional_1/backward_lstm_1/while/lstm_cell_1/add_1", "op": "_FusedMatMul", "input": ["StatefulPartitionedCall/sequential_1/bidirectional_1/backward_lstm_1/while/body/_64/sequential_1/bidirectional_1/backward_lstm_1/while/TensorArrayV2Read/TensorListGetItem", "StatefulPartitionedCall/sequential_1/bidirectional_1/backward_lstm_1/while/body/_64/sequential_1/bidirectional_1/backward_lstm_1/while/lstm_cell_1/Cast/ReadVariableOp", "StatefulPartitionedCall/sequential_1/bidirectional_1/backward_lstm_1/while/body/_64/sequential_1/bidirectional_1/backward_lstm_1/while/lstm_cell_1/add"], "device": "/device:CPU:0", "attr": {"transpose_a": {"b": false}, "transpose_b": {"b": false}, "fused_ops": {"list": {"s": ["Qmlhc0FkZA=="]}}, "leakyrelu_alpha": {"f": 0.2}, "num_args": {"i": "1"}, "epsilon": {"f": 0.0}, "T": {"type": "DT_FLOAT"}}}, {"name": "StatefulPartitionedCall/sequential_1/lstm_1_1/transpose", "op": "Transpose", "input": ["StatefulPartitionedCall/sequential_1/bidirectional_1/concat", "StatefulPartitionedCall/sequential_1/lstm_1_1/transpose/perm"], "attr": {"Tperm": {"type": "DT_INT32"}, "T": {"type": "DT_FLOAT"}}}, {"name": "StatefulPartitionedCall/sequential_1/lstm_1_1/Shape", "op": "Shape", "input": ["StatefulPartitionedCall/sequential_1/bidirectional_1/concat"], "attr": {"T": {"type": "DT_FLOAT"}, "out_type": {"type": "DT_INT32"}}, "experimentalType": {"typeId": "TFT_PRODUCT", "args": [{"typeId": "TFT_SHAPE_TENSOR", "args": [{"typeId": "TFT_INT32"}]}]}}, {"name": "StatefulPartitionedCall/sequential_1/bidirectional_1/forward_lstm_1/while/body/_20/sequential_1/bidirectional_1/forward_lstm_1/while/lstm_cell_1/split", "op": "Split", "input": ["StatefulPartitionedCall/sequential_1/bidirectional_1/forward_lstm_1/while/body/_20/sequential_1/bidirectional_1/forward_lstm_1/while/lstm_cell_1/split/split_dim", "StatefulPartitionedCall/sequential_1/bidirectional_1/forward_lstm_1/while/body/_20/sequential_1/bidirectional_1/forward_lstm_1/while/lstm_cell_1/add_1"], "attr": {"num_split": {"i": "4"}, "T": {"type": "DT_FLOAT"}}}, {"name": "StatefulPartitionedCall/sequential_1/bidirectional_1/backward_lstm_1/while/body/_64/sequential_1/bidirectional_1/backward_lstm_1/while/lstm_cell_1/split", "op": "Split", "input": ["StatefulPartitionedCall/sequential_1/bidirectional_1/backward_lstm_1/while/body/_64/sequential_1/bidirectional_1/backward_lstm_1/while/lstm_cell_1/split/split_dim", "StatefulPartitionedCall/sequential_1/bidirectional_1/backward_lstm_1/while/body/_64/sequential_1/bidirectional_1/backward_lstm_1/while/lstm_cell_1/add_1"], "attr": {"num_split": {"i": "4"}, "T": {"type": "DT_FLOAT"}}}, {"name": "StatefulPartitionedCall/sequential_1/lstm_1_1/TensorArrayUnstack/TensorListFromTensor", "op": "TensorListFromTensor", "input": ["StatefulPartitionedCall/sequential_1/lstm_1_1/transpose", "StatefulPartitionedCall/sequential_1/lstm_1_1/TensorArrayUnstack/TensorListFromTensor/element_shape"], "attr": {"shape_type": {"type": "DT_INT32"}, "_has_manual_control_dependencies": {"b": true}, "element_dtype": {"type": "DT_FLOAT"}}, "experimentalType": {"typeId": "TFT_PRODUCT", "args": [{"typeId": "TFT_ARRAY", "args": [{"typeId": "TFT_TENSOR", "args": [{"typeId": "TFT_FLOAT"}]}]}]}}, {"name": "StatefulPartitionedCall/sequential_1/lstm_1_1/strided_slice", "op": "StridedSlice", "input": ["StatefulPartitionedCall/sequential_1/lstm_1_1/Shape", "StatefulPartitionedCall/sequential_1/lstm_1_1/strided_slice/stack", "StatefulPartitionedCall/sequential_1/lstm_1_1/strided_slice/stack_1", "StatefulPartitionedCall/sequential_1/lstm_1_1/strided_slice/stack_2"], "attr": {"shrink_axis_mask": {"i": "1"}, "new_axis_mask": {"i": "0"}, "Index": {"type": "DT_INT32"}, "begin_mask": {"i": "0"}, "T": {"type": "DT_INT32"}, "end_mask": {"i": "0"}, "ellipsis_mask": {"i": "0"}}}, {"name": "StatefulPartitionedCall/sequential_1/bidirectional_1/forward_lstm_1/while/body/_20/sequential_1/bidirectional_1/forward_lstm_1/while/lstm_cell_1/Sigmoid", "op": "Sigmoid", "input": ["StatefulPartitionedCall/sequential_1/bidirectional_1/forward_lstm_1/while/body/_20/sequential_1/bidirectional_1/forward_lstm_1/while/lstm_cell_1/split"], "attr": {"T": {"type": "DT_FLOAT"}}}, {"name": "StatefulPartitionedCall/sequential_1/bidirectional_1/forward_lstm_1/while/body/_20/sequential_1/bidirectional_1/forward_lstm_1/while/lstm_cell_1/Sigmoid_1", "op": "Sigmoid", "input": ["StatefulPartitionedCall/sequential_1/bidirectional_1/forward_lstm_1/while/body/_20/sequential_1/bidirectional_1/forward_lstm_1/while/lstm_cell_1/split:1"], "attr": {"T": {"type": "DT_FLOAT"}}}, {"name": "StatefulPartitionedCall/sequential_1/bidirectional_1/forward_lstm_1/while/body/_20/sequential_1/bidirectional_1/forward_lstm_1/while/lstm_cell_1/Tanh", "op": "Tanh", "input": ["StatefulPartitionedCall/sequential_1/bidirectional_1/forward_lstm_1/while/body/_20/sequential_1/bidirectional_1/forward_lstm_1/while/lstm_cell_1/split:2"], "attr": {"T": {"type": "DT_FLOAT"}}}, {"name": "StatefulPartitionedCall/sequential_1/bidirectional_1/forward_lstm_1/while/body/_20/sequential_1/bidirectional_1/forward_lstm_1/while/lstm_cell_1/Sigmoid_2", "op": "Sigmoid", "input": ["StatefulPartitionedCall/sequential_1/bidirectional_1/forward_lstm_1/while/body/_20/sequential_1/bidirectional_1/forward_lstm_1/while/lstm_cell_1/split:3"], "attr": {"T": {"type": "DT_FLOAT"}}}, {"name": "StatefulPartitionedCall/sequential_1/bidirectional_1/backward_lstm_1/while/body/_64/sequential_1/bidirectional_1/backward_lstm_1/while/lstm_cell_1/Sigmoid", "op": "Sigmoid", "input": ["StatefulPartitionedCall/sequential_1/bidirectional_1/backward_lstm_1/while/body/_64/sequential_1/bidirectional_1/backward_lstm_1/while/lstm_cell_1/split"], "attr": {"T": {"type": "DT_FLOAT"}}}, {"name": "StatefulPartitionedCall/sequential_1/bidirectional_1/backward_lstm_1/while/body/_64/sequential_1/bidirectional_1/backward_lstm_1/while/lstm_cell_1/Sigmoid_1", "op": "Sigmoid", "input": ["StatefulPartitionedCall/sequential_1/bidirectional_1/backward_lstm_1/while/body/_64/sequential_1/bidirectional_1/backward_lstm_1/while/lstm_cell_1/split:1"], "attr": {"T": {"type": "DT_FLOAT"}}}, {"name": "StatefulPartitionedCall/sequential_1/bidirectional_1/backward_lstm_1/while/body/_64/sequential_1/bidirectional_1/backward_lstm_1/while/lstm_cell_1/Tanh", "op": "Tanh", "input": ["StatefulPartitionedCall/sequential_1/bidirectional_1/backward_lstm_1/while/body/_64/sequential_1/bidirectional_1/backward_lstm_1/while/lstm_cell_1/split:2"], "attr": {"T": {"type": "DT_FLOAT"}}}, {"name": "StatefulPartitionedCall/sequential_1/bidirectional_1/backward_lstm_1/while/body/_64/sequential_1/bidirectional_1/backward_lstm_1/while/lstm_cell_1/Sigmoid_2", "op": "Sigmoid", "input": ["StatefulPartitionedCall/sequential_1/bidirectional_1/backward_lstm_1/while/body/_64/sequential_1/bidirectional_1/backward_lstm_1/while/lstm_cell_1/split:3"], "attr": {"T": {"type": "DT_FLOAT"}}}, {"name": "StatefulPartitionedCall/sequential_1/lstm_1_1/zeros/packed", "op": "Pack", "input": ["StatefulPartitionedCall/sequential_1/lstm_1_1/strided_slice", "StatefulPartitionedCall/sequential_1/lstm_1_1/zeros/packed/1"], "attr": {"N": {"i": "2"}, "axis": {"i": "0"}, "T": {"type": "DT_INT32"}}}, {"name": "StatefulPartitionedCall/sequential_1/lstm_1_1/zeros_1/packed", "op": "Pack", "input": ["StatefulPartitionedCall/sequential_1/lstm_1_1/strided_slice", "StatefulPartitionedCall/sequential_1/lstm_1_1/zeros_1/packed/1"], "attr": {"N": {"i": "2"}, "axis": {"i": "0"}, "T": {"type": "DT_INT32"}}}, {"name": "StatefulPartitionedCall/sequential_1/bidirectional_1/forward_lstm_1/while/body/_20/sequential_1/bidirectional_1/forward_lstm_1/while/lstm_cell_1/mul", "op": "Mul", "input": ["StatefulPartitionedCall/sequential_1/bidirectional_1/forward_lstm_1/while/body/_20/sequential_1/bidirectional_1/forward_lstm_1/while/lstm_cell_1/Sigmoid_1", "StatefulPartitionedCall/sequential_1/bidirectional_1/forward_lstm_1/while/StatefulPartitionedCall/sequential_1/bidirectional_1/forward_lstm_1/zeros_1_switch/_45:1"], "attr": {"T": {"type": "DT_FLOAT"}}}, {"name": "StatefulPartitionedCall/sequential_1/bidirectional_1/forward_lstm_1/while/body/_20/sequential_1/bidirectional_1/forward_lstm_1/while/lstm_cell_1/mul_1", "op": "Mul", "input": ["StatefulPartitionedCall/sequential_1/bidirectional_1/forward_lstm_1/while/body/_20/sequential_1/bidirectional_1/forward_lstm_1/while/lstm_cell_1/Sigmoid", "StatefulPartitionedCall/sequential_1/bidirectional_1/forward_lstm_1/while/body/_20/sequential_1/bidirectional_1/forward_lstm_1/while/lstm_cell_1/Tanh"], "attr": {"T": {"type": "DT_FLOAT"}}}, {"name": "StatefulPartitionedCall/sequential_1/bidirectional_1/backward_lstm_1/while/body/_64/sequential_1/bidirectional_1/backward_lstm_1/while/lstm_cell_1/mul", "op": "Mul", "input": ["StatefulPartitionedCall/sequential_1/bidirectional_1/backward_lstm_1/while/body/_64/sequential_1/bidirectional_1/backward_lstm_1/while/lstm_cell_1/Sigmoid_1", "StatefulPartitionedCall/sequential_1/bidirectional_1/backward_lstm_1/while/StatefulPartitionedCall/sequential_1/bidirectional_1/backward_lstm_1/zeros_1_switch/_89:1"], "attr": {"T": {"type": "DT_FLOAT"}}}, {"name": "StatefulPartitionedCall/sequential_1/bidirectional_1/backward_lstm_1/while/body/_64/sequential_1/bidirectional_1/backward_lstm_1/while/lstm_cell_1/mul_1", "op": "Mul", "input": ["StatefulPartitionedCall/sequential_1/bidirectional_1/backward_lstm_1/while/body/_64/sequential_1/bidirectional_1/backward_lstm_1/while/lstm_cell_1/Sigmoid", "StatefulPartitionedCall/sequential_1/bidirectional_1/backward_lstm_1/while/body/_64/sequential_1/bidirectional_1/backward_lstm_1/while/lstm_cell_1/Tanh"], "attr": {"T": {"type": "DT_FLOAT"}}}, {"name": "StatefulPartitionedCall/sequential_1/lstm_1_1/zeros", "op": "Fill", "input": ["StatefulPartitionedCall/sequential_1/lstm_1_1/zeros/packed", "StatefulPartitionedCall/sequential_1/lstm_1_1/zeros/Const"], "attr": {"_has_manual_control_dependencies": {"b": true}, "T": {"type": "DT_FLOAT"}, "index_type": {"type": "DT_INT32"}}}, {"name": "StatefulPartitionedCall/sequential_1/lstm_1_1/zeros_1", "op": "Fill", "input": ["StatefulPartitionedCall/sequential_1/lstm_1_1/zeros_1/packed", "StatefulPartitionedCall/sequential_1/lstm_1_1/zeros_1/Const"], "attr": {"_has_manual_control_dependencies": {"b": true}, "T": {"type": "DT_FLOAT"}, "index_type": {"type": "DT_INT32"}}}, {"name": "StatefulPartitionedCall/sequential_1/bidirectional_1/forward_lstm_1/while/body/_20/sequential_1/bidirectional_1/forward_lstm_1/while/lstm_cell_1/add_2", "op": "AddV2", "input": ["StatefulPartitionedCall/sequential_1/bidirectional_1/forward_lstm_1/while/body/_20/sequential_1/bidirectional_1/forward_lstm_1/while/lstm_cell_1/mul", "StatefulPartitionedCall/sequential_1/bidirectional_1/forward_lstm_1/while/body/_20/sequential_1/bidirectional_1/forward_lstm_1/while/lstm_cell_1/mul_1"], "attr": {"T": {"type": "DT_FLOAT"}}}, {"name": "StatefulPartitionedCall/sequential_1/bidirectional_1/backward_lstm_1/while/body/_64/sequential_1/bidirectional_1/backward_lstm_1/while/lstm_cell_1/add_2", "op": "AddV2", "input": ["StatefulPartitionedCall/sequential_1/bidirectional_1/backward_lstm_1/while/body/_64/sequential_1/bidirectional_1/backward_lstm_1/while/lstm_cell_1/mul", "StatefulPartitionedCall/sequential_1/bidirectional_1/backward_lstm_1/while/body/_64/sequential_1/bidirectional_1/backward_lstm_1/while/lstm_cell_1/mul_1"], "attr": {"T": {"type": "DT_FLOAT"}}}, {"name": "StatefulPartitionedCall/sequential_1/lstm_1_1/while/LoopControlInputs/_119", "op": "NoOp", "input": ["^StatefulPartitionedCall/sequential_1/lstm_1_1/TensorArrayUnstack/TensorListFromTensor", "^StatefulPartitionedCall/sequential_1/lstm_1_1/TensorArrayV2_1", "^StatefulPartitionedCall/sequential_1/lstm_1_1/zeros", "^StatefulPartitionedCall/sequential_1/lstm_1_1/zeros_1"], "attr": {"_has_manual_control_dependencies": {"b": true}}}, {"name": "StatefulPartitionedCall/sequential_1/bidirectional_1/forward_lstm_1/while/body/_20/sequential_1/bidirectional_1/forward_lstm_1/while/lstm_cell_1/Tanh_1", "op": "Tanh", "input": ["StatefulPartitionedCall/sequential_1/bidirectional_1/forward_lstm_1/while/body/_20/sequential_1/bidirectional_1/forward_lstm_1/while/lstm_cell_1/add_2"], "attr": {"T": {"type": "DT_FLOAT"}}}, {"name": "StatefulPartitionedCall/sequential_1/bidirectional_1/forward_lstm_1/while/next_iteration/_61", "op": "NextIteration", "input": ["StatefulPartitionedCall/sequential_1/bidirectional_1/forward_lstm_1/while/body/_20/sequential_1/bidirectional_1/forward_lstm_1/while/lstm_cell_1/add_2", "^Func/StatefulPartitionedCall/sequential_1/bidirectional_1/forward_lstm_1/while/body/_20/output_control_node/_228", "^StatefulPartitionedCall/sequential_1/bidirectional_1/forward_lstm_1/while/body/_20/sequential_1/bidirectional_1/forward_lstm_1/while/NoOp"], "attr": {"T": {"type": "DT_FLOAT"}}}, {"name": "StatefulPartitionedCall/sequential_1/bidirectional_1/backward_lstm_1/while/body/_64/sequential_1/bidirectional_1/backward_lstm_1/while/lstm_cell_1/Tanh_1", "op": "Tanh", "input": ["StatefulPartitionedCall/sequential_1/bidirectional_1/backward_lstm_1/while/body/_64/sequential_1/bidirectional_1/backward_lstm_1/while/lstm_cell_1/add_2"], "attr": {"T": {"type": "DT_FLOAT"}}}, {"name": "StatefulPartitionedCall/sequential_1/bidirectional_1/backward_lstm_1/while/next_iteration/_105", "op": "NextIteration", "input": ["StatefulPartitionedCall/sequential_1/bidirectional_1/backward_lstm_1/while/body/_64/sequential_1/bidirectional_1/backward_lstm_1/while/lstm_cell_1/add_2", "^Func/StatefulPartitionedCall/sequential_1/bidirectional_1/backward_lstm_1/while/body/_64/output_control_node/_262", "^StatefulPartitionedCall/sequential_1/bidirectional_1/backward_lstm_1/while/body/_64/sequential_1/bidirectional_1/backward_lstm_1/while/NoOp"], "attr": {"T": {"type": "DT_FLOAT"}}}, {"name": "StatefulPartitionedCall/sequential_1/lstm_1_1/while/enter/_110", "op": "Enter", "input": ["StatefulPartitionedCall/sequential_1/lstm_1_1/Max", "^StatefulPartitionedCall/sequential_1/lstm_1_1/while/LoopControlInputs/_119"], "attr": {"is_constant": {"b": false}, "frame_name": {"s": "U3RhdGVmdWxQYXJ0aXRpb25lZENhbGwvc2VxdWVudGlhbF8xL2xzdG1fMV8xL3doaWxl"}, "T": {"type": "DT_INT32"}, "parallel_iterations": {"i": "32"}}}, {"name": "StatefulPartitionedCall/sequential_1/lstm_1_1/while/enter/_115", "op": "Enter", "input": ["StatefulPartitionedCall/sequential_1/lstm_1_1/TensorArrayUnstack/TensorListFromTensor", "^StatefulPartitionedCall/sequential_1/lstm_1_1/while/LoopControlInputs/_119"], "attr": {"is_constant": {"b": false}, "frame_name": {"s": "U3RhdGVmdWxQYXJ0aXRpb25lZENhbGwvc2VxdWVudGlhbF8xL2xzdG1fMV8xL3doaWxl"}, "T": {"type": "DT_VARIANT"}, "parallel_iterations": {"i": "32"}}}, {"name": "StatefulPartitionedCall/sequential_1/lstm_1_1/while/enter/_112", "op": "Enter", "input": ["StatefulPartitionedCall/sequential_1/lstm_1_1/TensorArrayV2_1", "^StatefulPartitionedCall/sequential_1/lstm_1_1/while/LoopControlInputs/_119"], "attr": {"is_constant": {"b": false}, "frame_name": {"s": "U3RhdGVmdWxQYXJ0aXRpb25lZENhbGwvc2VxdWVudGlhbF8xL2xzdG1fMV8xL3doaWxl"}, "T": {"type": "DT_VARIANT"}, "parallel_iterations": {"i": "32"}}}, {"name": "StatefulPartitionedCall/sequential_1/lstm_1_1/while/enter/_109", "op": "Enter", "input": ["StatefulPartitionedCall/sequential_1/lstm_1_1/while/loop_counter", "^StatefulPartitionedCall/sequential_1/lstm_1_1/while/LoopControlInputs/_119"], "attr": {"is_constant": {"b": false}, "frame_name": {"s": "U3RhdGVmdWxQYXJ0aXRpb25lZENhbGwvc2VxdWVudGlhbF8xL2xzdG1fMV8xL3doaWxl"}, "T": {"type": "DT_INT32"}, "parallel_iterations": {"i": "32"}}}, {"name": "StatefulPartitionedCall/sequential_1/lstm_1_1/while/enter/_113", "op": "Enter", "input": ["StatefulPartitionedCall/sequential_1/lstm_1_1/zeros", "^StatefulPartitionedCall/sequential_1/lstm_1_1/while/LoopControlInputs/_119"], "attr": {"is_constant": {"b": false}, "frame_name": {"s": "U3RhdGVmdWxQYXJ0aXRpb25lZENhbGwvc2VxdWVudGlhbF8xL2xzdG1fMV8xL3doaWxl"}, "T": {"type": "DT_FLOAT"}, "parallel_iterations": {"i": "32"}}}, {"name": "StatefulPartitionedCall/sequential_1/lstm_1_1/while/enter/_114", "op": "Enter", "input": ["StatefulPartitionedCall/sequential_1/lstm_1_1/zeros_1", "^StatefulPartitionedCall/sequential_1/lstm_1_1/while/LoopControlInputs/_119"], "attr": {"is_constant": {"b": false}, "frame_name": {"s": "U3RhdGVmdWxQYXJ0aXRpb25lZENhbGwvc2VxdWVudGlhbF8xL2xzdG1fMV8xL3doaWxl"}, "T": {"type": "DT_FLOAT"}, "parallel_iterations": {"i": "32"}}}, {"name": "StatefulPartitionedCall/sequential_1/lstm_1_1/while/enter/_111", "op": "Enter", "input": ["StatefulPartitionedCall/sequential_1/lstm_1_1/time", "^StatefulPartitionedCall/sequential_1/lstm_1_1/while/LoopControlInputs/_119"], "attr": {"is_constant": {"b": false}, "frame_name": {"s": "U3RhdGVmdWxQYXJ0aXRpb25lZENhbGwvc2VxdWVudGlhbF8xL2xzdG1fMV8xL3doaWxl"}, "T": {"type": "DT_INT32"}, "parallel_iterations": {"i": "32"}}}, {"name": "StatefulPartitionedCall/sequential_1/lstm_1_1/while/enter/_116", "op": "Enter", "input": ["Func/StatefulPartitionedCall/input/_7", "^StatefulPartitionedCall/sequential_1/lstm_1_1/while/LoopControlInputs/_119"], "attr": {"is_constant": {"b": true}, "_has_manual_control_dependencies": {"b": true}, "T": {"type": "DT_FLOAT"}, "frame_name": {"s": "U3RhdGVmdWxQYXJ0aXRpb25lZENhbGwvc2VxdWVudGlhbF8xL2xzdG1fMV8xL3doaWxl"}, "parallel_iterations": {"i": "32"}}}, {"name": "StatefulPartitionedCall/sequential_1/lstm_1_1/while/enter/_117", "op": "Enter", "input": ["Func/StatefulPartitionedCall/input/_8", "^StatefulPartitionedCall/sequential_1/lstm_1_1/while/LoopControlInputs/_119"], "attr": {"is_constant": {"b": true}, "_has_manual_control_dependencies": {"b": true}, "T": {"type": "DT_FLOAT"}, "frame_name": {"s": "U3RhdGVmdWxQYXJ0aXRpb25lZENhbGwvc2VxdWVudGlhbF8xL2xzdG1fMV8xL3doaWxl"}, "parallel_iterations": {"i": "32"}}}, {"name": "StatefulPartitionedCall/sequential_1/lstm_1_1/while/enter/_118", "op": "Enter", "input": ["Func/StatefulPartitionedCall/input/_9", "^StatefulPartitionedCall/sequential_1/lstm_1_1/while/LoopControlInputs/_119"], "attr": {"is_constant": {"b": true}, "frame_name": {"s": "U3RhdGVmdWxQYXJ0aXRpb25lZENhbGwvc2VxdWVudGlhbF8xL2xzdG1fMV8xL3doaWxl"}, "T": {"type": "DT_FLOAT"}, "_has_manual_control_dependencies": {"b": true}, "parallel_iterations": {"i": "32"}}}, {"name": "StatefulPartitionedCall/sequential_1/bidirectional_1/forward_lstm_1/while/body/_20/sequential_1/bidirectional_1/forward_lstm_1/while/lstm_cell_1/mul_2", "op": "Mul", "input": ["StatefulPartitionedCall/sequential_1/bidirectional_1/forward_lstm_1/while/body/_20/sequential_1/bidirectional_1/forward_lstm_1/while/lstm_cell_1/Sigmoid_2", "StatefulPartitionedCall/sequential_1/bidirectional_1/forward_lstm_1/while/body/_20/sequential_1/bidirectional_1/forward_lstm_1/while/lstm_cell_1/Tanh_1"], "attr": {"T": {"type": "DT_FLOAT"}}}, {"name": "StatefulPartitionedCall/sequential_1/bidirectional_1/backward_lstm_1/while/body/_64/sequential_1/bidirectional_1/backward_lstm_1/while/lstm_cell_1/mul_2", "op": "Mul", "input": ["StatefulPartitionedCall/sequential_1/bidirectional_1/backward_lstm_1/while/body/_64/sequential_1/bidirectional_1/backward_lstm_1/while/lstm_cell_1/Sigmoid_2", "StatefulPartitionedCall/sequential_1/bidirectional_1/backward_lstm_1/while/body/_64/sequential_1/bidirectional_1/backward_lstm_1/while/lstm_cell_1/Tanh_1"], "attr": {"T": {"type": "DT_FLOAT"}}}, {"name": "StatefulPartitionedCall/sequential_1/lstm_1_1/while/merge/_121", "op": "Merge", "input": ["StatefulPartitionedCall/sequential_1/lstm_1_1/while/enter/_110", "StatefulPartitionedCall/sequential_1/lstm_1_1/while/next_iteration/_145"], "attr": {"N": {"i": "2"}, "_has_manual_control_dependencies": {"b": true}, "T": {"type": "DT_INT32"}}}, {"name": "StatefulPartitionedCall/sequential_1/lstm_1_1/while/merge/_126", "op": "Merge", "input": ["StatefulPartitionedCall/sequential_1/lstm_1_1/while/enter/_115", "StatefulPartitionedCall/sequential_1/lstm_1_1/while/next_iteration/_150"], "attr": {"N": {"i": "2"}, "_has_manual_control_dependencies": {"b": true}, "T": {"type": "DT_VARIANT"}}}, {"name": "StatefulPartitionedCall/sequential_1/lstm_1_1/while/merge/_123", "op": "Merge", "input": ["StatefulPartitionedCall/sequential_1/lstm_1_1/while/enter/_112", "StatefulPartitionedCall/sequential_1/lstm_1_1/while/next_iteration/_147"], "attr": {"N": {"i": "2"}, "_has_manual_control_dependencies": {"b": true}, "T": {"type": "DT_VARIANT"}}}, {"name": "StatefulPartitionedCall/sequential_1/lstm_1_1/while/merge/_120", "op": "Merge", "input": ["StatefulPartitionedCall/sequential_1/lstm_1_1/while/enter/_109", "StatefulPartitionedCall/sequential_1/lstm_1_1/while/next_iteration/_144"], "attr": {"N": {"i": "2"}, "T": {"type": "DT_INT32"}}}, {"name": "StatefulPartitionedCall/sequential_1/lstm_1_1/while/merge/_124", "op": "Merge", "input": ["StatefulPartitionedCall/sequential_1/lstm_1_1/while/enter/_113", "StatefulPartitionedCall/sequential_1/lstm_1_1/while/next_iteration/_148"], "attr": {"N": {"i": "2"}, "_has_manual_control_dependencies": {"b": true}, "T": {"type": "DT_FLOAT"}}}, {"name": "StatefulPartitionedCall/sequential_1/lstm_1_1/while/merge/_125", "op": "Merge", "input": ["StatefulPartitionedCall/sequential_1/lstm_1_1/while/enter/_114", "StatefulPartitionedCall/sequential_1/lstm_1_1/while/next_iteration/_149"], "attr": {"N": {"i": "2"}, "_has_manual_control_dependencies": {"b": true}, "T": {"type": "DT_FLOAT"}}}, {"name": "StatefulPartitionedCall/sequential_1/lstm_1_1/while/merge/_122", "op": "Merge", "input": ["StatefulPartitionedCall/sequential_1/lstm_1_1/while/enter/_111", "StatefulPartitionedCall/sequential_1/lstm_1_1/while/next_iteration/_146"], "attr": {"N": {"i": "2"}, "_has_manual_control_dependencies": {"b": true}, "T": {"type": "DT_INT32"}}}, {"name": "StatefulPartitionedCall/sequential_1/bidirectional_1/forward_lstm_1/while/body/_20/sequential_1/bidirectional_1/forward_lstm_1/while/TensorArrayV2Write/TensorListSetItem", "op": "TensorListSetItem", "input": ["StatefulPartitionedCall/sequential_1/bidirectional_1/forward_lstm_1/while/StatefulPartitionedCall/sequential_1/bidirectional_1/forward_lstm_1/TensorArrayV2_1_switch/_43:1", "Func/StatefulPartitionedCall/sequential_1/bidirectional_1/forward_lstm_1/while/body/_20/input/_210", "StatefulPartitionedCall/sequential_1/bidirectional_1/forward_lstm_1/while/body/_20/sequential_1/bidirectional_1/forward_lstm_1/while/lstm_cell_1/mul_2"], "attr": {"element_dtype": {"type": "DT_FLOAT"}, "resize_if_index_out_of_bounds": {"b": false}}, "experimentalType": {"typeId": "TFT_PRODUCT", "args": [{"typeId": "TFT_ARRAY", "args": [{"typeId": "TFT_TENSOR", "args": [{"typeId": "TFT_FLOAT"}]}]}]}}, {"name": "StatefulPartitionedCall/sequential_1/bidirectional_1/forward_lstm_1/while/next_iteration/_60", "op": "NextIteration", "input": ["StatefulPartitionedCall/sequential_1/bidirectional_1/forward_lstm_1/while/body/_20/sequential_1/bidirectional_1/forward_lstm_1/while/lstm_cell_1/mul_2", "^Func/StatefulPartitionedCall/sequential_1/bidirectional_1/forward_lstm_1/while/body/_20/output_control_node/_228", "^StatefulPartitionedCall/sequential_1/bidirectional_1/forward_lstm_1/while/body/_20/sequential_1/bidirectional_1/forward_lstm_1/while/NoOp"], "attr": {"T": {"type": "DT_FLOAT"}}}, {"name": "StatefulPartitionedCall/sequential_1/bidirectional_1/backward_lstm_1/while/body/_64/sequential_1/bidirectional_1/backward_lstm_1/while/TensorArrayV2Write/TensorListSetItem", "op": "TensorListSetItem", "input": ["StatefulPartitionedCall/sequential_1/bidirectional_1/backward_lstm_1/while/StatefulPartitionedCall/sequential_1/bidirectional_1/backward_lstm_1/TensorArrayV2_1_switch/_87:1", "Func/StatefulPartitionedCall/sequential_1/bidirectional_1/backward_lstm_1/while/body/_64/input/_244", "StatefulPartitionedCall/sequential_1/bidirectional_1/backward_lstm_1/while/body/_64/sequential_1/bidirectional_1/backward_lstm_1/while/lstm_cell_1/mul_2"], "attr": {"element_dtype": {"type": "DT_FLOAT"}, "resize_if_index_out_of_bounds": {"b": false}}, "experimentalType": {"typeId": "TFT_PRODUCT", "args": [{"typeId": "TFT_ARRAY", "args": [{"typeId": "TFT_TENSOR", "args": [{"typeId": "TFT_FLOAT"}]}]}]}}, {"name": "StatefulPartitionedCall/sequential_1/bidirectional_1/backward_lstm_1/while/next_iteration/_104", "op": "NextIteration", "input": ["StatefulPartitionedCall/sequential_1/bidirectional_1/backward_lstm_1/while/body/_64/sequential_1/bidirectional_1/backward_lstm_1/while/lstm_cell_1/mul_2", "^Func/StatefulPartitionedCall/sequential_1/bidirectional_1/backward_lstm_1/while/body/_64/output_control_node/_262", "^StatefulPartitionedCall/sequential_1/bidirectional_1/backward_lstm_1/while/body/_64/sequential_1/bidirectional_1/backward_lstm_1/while/NoOp"], "attr": {"T": {"type": "DT_FLOAT"}}}, {"name": "Func/StatefulPartitionedCall/sequential_1/lstm_1_1/while/cond/_107/input_control_node/_263", "op": "NoOp", "input": ["^StatefulPartitionedCall/sequential_1/lstm_1_1/while/enter/_116", "^StatefulPartitionedCall/sequential_1/lstm_1_1/while/enter/_117", "^StatefulPartitionedCall/sequential_1/lstm_1_1/while/enter/_118", "^StatefulPartitionedCall/sequential_1/lstm_1_1/while/merge/_120", "^StatefulPartitionedCall/sequential_1/lstm_1_1/while/merge/_121", "^StatefulPartitionedCall/sequential_1/lstm_1_1/while/merge/_122", "^StatefulPartitionedCall/sequential_1/lstm_1_1/while/merge/_123", "^StatefulPartitionedCall/sequential_1/lstm_1_1/while/merge/_124", "^StatefulPartitionedCall/sequential_1/lstm_1_1/while/merge/_125", "^StatefulPartitionedCall/sequential_1/lstm_1_1/while/merge/_126"], "attr": {"_has_manual_control_dependencies": {"b": true}}}, {"name": "StatefulPartitionedCall/sequential_1/bidirectional_1/forward_lstm_1/while/next_iteration/_59", "op": "NextIteration", "input": ["StatefulPartitionedCall/sequential_1/bidirectional_1/forward_lstm_1/while/body/_20/sequential_1/bidirectional_1/forward_lstm_1/while/TensorArrayV2Write/TensorListSetItem", "^Func/StatefulPartitionedCall/sequential_1/bidirectional_1/forward_lstm_1/while/body/_20/output_control_node/_228", "^StatefulPartitionedCall/sequential_1/bidirectional_1/forward_lstm_1/while/body/_20/sequential_1/bidirectional_1/forward_lstm_1/while/NoOp"], "attr": {"T": {"type": "DT_VARIANT"}}}, {"name": "StatefulPartitionedCall/sequential_1/bidirectional_1/backward_lstm_1/while/next_iteration/_103", "op": "NextIteration", "input": ["StatefulPartitionedCall/sequential_1/bidirectional_1/backward_lstm_1/while/body/_64/sequential_1/bidirectional_1/backward_lstm_1/while/TensorArrayV2Write/TensorListSetItem", "^Func/StatefulPartitionedCall/sequential_1/bidirectional_1/backward_lstm_1/while/body/_64/output_control_node/_262", "^StatefulPartitionedCall/sequential_1/bidirectional_1/backward_lstm_1/while/body/_64/sequential_1/bidirectional_1/backward_lstm_1/while/NoOp"], "attr": {"T": {"type": "DT_VARIANT"}}}, {"name": "StatefulPartitionedCall/sequential_1/lstm_1_1/while/cond/_107/sequential_1/lstm_1_1/while/Less_1", "op": "Less", "input": ["StatefulPartitionedCall/sequential_1/lstm_1_1/while/merge/_120", "StatefulPartitionedCall/sequential_1/lstm_1_1/while/merge/_121", "^Func/StatefulPartitionedCall/sequential_1/lstm_1_1/while/cond/_107/input_control_node/_263"], "attr": {"T": {"type": "DT_INT32"}}}, {"name": "StatefulPartitionedCall/sequential_1/lstm_1_1/while/cond/_107/sequential_1/lstm_1_1/while/Less/y", "op": "Const", "input": ["^Func/StatefulPartitionedCall/sequential_1/lstm_1_1/while/cond/_107/input_control_node/_263"], "attr": {"value": {"tensor": {"dtype": "DT_INT32", "tensorShape": {}}}, "dtype": {"type": "DT_INT32"}}}, {"name": "StatefulPartitionedCall/sequential_1/lstm_1_1/while/cond/_107/sequential_1/lstm_1_1/while/Less", "op": "Less", "input": ["StatefulPartitionedCall/sequential_1/lstm_1_1/while/merge/_122", "StatefulPartitionedCall/sequential_1/lstm_1_1/while/cond/_107/sequential_1/lstm_1_1/while/Less/y"], "attr": {"T": {"type": "DT_INT32"}}}, {"name": "StatefulPartitionedCall/sequential_1/lstm_1_1/while/cond/_107/sequential_1/lstm_1_1/while/LogicalAnd", "op": "LogicalAnd", "input": ["StatefulPartitionedCall/sequential_1/lstm_1_1/while/cond/_107/sequential_1/lstm_1_1/while/Less_1", "StatefulPartitionedCall/sequential_1/lstm_1_1/while/cond/_107/sequential_1/lstm_1_1/while/Less"]}, {"name": "StatefulPartitionedCall/sequential_1/lstm_1_1/while/LoopCond/_127", "op": "LoopCond", "input": ["StatefulPartitionedCall/sequential_1/lstm_1_1/while/cond/_107/sequential_1/lstm_1_1/while/LogicalAnd"]}, {"name": "StatefulPartitionedCall/sequential_1/lstm_1_1/while/StatefulPartitionedCall/sequential_1/lstm_1_1/TensorArrayV2_1_switch/_131", "op": "Switch", "input": ["StatefulPartitionedCall/sequential_1/lstm_1_1/while/merge/_123", "StatefulPartitionedCall/sequential_1/lstm_1_1/while/LoopCond/_127"], "attr": {"_has_manual_control_dependencies": {"b": true}, "T": {"type": "DT_VARIANT"}}}, {"name": "StatefulPartitionedCall/sequential_1/lstm_1_1/while/StatefulPartitionedCall/sequential_1/lstm_1_1/while/loop_counter_switch/_128", "op": "Switch", "input": ["StatefulPartitionedCall/sequential_1/lstm_1_1/while/merge/_120", "StatefulPartitionedCall/sequential_1/lstm_1_1/while/LoopCond/_127"], "attr": {"T": {"type": "DT_INT32"}}}, {"name": "StatefulPartitionedCall/sequential_1/lstm_1_1/while/StatefulPartitionedCall/sequential_1/lstm_1_1/zeros_1_switch/_133", "op": "Switch", "input": ["StatefulPartitionedCall/sequential_1/lstm_1_1/while/merge/_125", "StatefulPartitionedCall/sequential_1/lstm_1_1/while/LoopCond/_127"], "attr": {"_has_manual_control_dependencies": {"b": true}, "T": {"type": "DT_FLOAT"}}}, {"name": "StatefulPartitionedCall/sequential_1/lstm_1_1/while/StatefulPartitionedCall/sequential_1/lstm_1_1/TensorArrayUnstack/TensorListFromTensor_switch/_134", "op": "Switch", "input": ["StatefulPartitionedCall/sequential_1/lstm_1_1/while/merge/_126", "StatefulPartitionedCall/sequential_1/lstm_1_1/while/LoopCond/_127"], "attr": {"_has_manual_control_dependencies": {"b": true}, "T": {"type": "DT_VARIANT"}}}, {"name": "StatefulPartitionedCall/sequential_1/lstm_1_1/while/StatefulPartitionedCall/sequential_1/lstm_1_1/time_switch/_130", "op": "Switch", "input": ["StatefulPartitionedCall/sequential_1/lstm_1_1/while/merge/_122", "StatefulPartitionedCall/sequential_1/lstm_1_1/while/LoopCond/_127"], "attr": {"_has_manual_control_dependencies": {"b": true}, "T": {"type": "DT_INT32"}}}, {"name": "StatefulPartitionedCall/sequential_1/lstm_1_1/while/StatefulPartitionedCall/sequential_1/lstm_1_1/zeros_switch/_132", "op": "Switch", "input": ["StatefulPartitionedCall/sequential_1/lstm_1_1/while/merge/_124", "StatefulPartitionedCall/sequential_1/lstm_1_1/while/LoopCond/_127"], "attr": {"_has_manual_control_dependencies": {"b": true}, "T": {"type": "DT_FLOAT"}}}, {"name": "StatefulPartitionedCall/sequential_1/lstm_1_1/while/StatefulPartitionedCall/sequential_1/lstm_1_1/Max_switch/_129", "op": "Switch", "input": ["StatefulPartitionedCall/sequential_1/lstm_1_1/while/merge/_121", "StatefulPartitionedCall/sequential_1/lstm_1_1/while/LoopCond/_127"], "attr": {"_has_manual_control_dependencies": {"b": true}, "T": {"type": "DT_INT32"}}}, {"name": "StatefulPartitionedCall/sequential_1/lstm_1_1/while/exit/_139", "op": "Exit", "input": ["StatefulPartitionedCall/sequential_1/lstm_1_1/while/StatefulPartitionedCall/sequential_1/lstm_1_1/TensorArrayV2_1_switch/_131"], "attr": {"_has_manual_control_dependencies": {"b": true}, "T": {"type": "DT_VARIANT"}}}, {"name": "StatefulPartitionedCall/sequential_1/lstm_1_1/while/exit/_136", "op": "Exit", "input": ["StatefulPartitionedCall/sequential_1/lstm_1_1/while/StatefulPartitionedCall/sequential_1/lstm_1_1/while/loop_counter_switch/_128"], "attr": {"_has_manual_control_dependencies": {"b": true}, "T": {"type": "DT_INT32"}}}, {"name": "StatefulPartitionedCall/sequential_1/lstm_1_1/while/loop_body_control/_135", "op": "Identity", "input": ["StatefulPartitionedCall/sequential_1/lstm_1_1/while/StatefulPartitionedCall/sequential_1/lstm_1_1/while/loop_counter_switch/_128:1"], "attr": {"_has_manual_control_dependencies": {"b": true}, "T": {"type": "DT_INT32"}}}, {"name": "StatefulPartitionedCall/sequential_1/lstm_1_1/while/exit/_141", "op": "Exit", "input": ["StatefulPartitionedCall/sequential_1/lstm_1_1/while/StatefulPartitionedCall/sequential_1/lstm_1_1/zeros_1_switch/_133"], "attr": {"_has_manual_control_dependencies": {"b": true}, "T": {"type": "DT_FLOAT"}}}, {"name": "StatefulPartitionedCall/sequential_1/lstm_1_1/while/exit/_142", "op": "Exit", "input": ["StatefulPartitionedCall/sequential_1/lstm_1_1/while/StatefulPartitionedCall/sequential_1/lstm_1_1/TensorArrayUnstack/TensorListFromTensor_switch/_134"], "attr": {"_has_manual_control_dependencies": {"b": true}, "T": {"type": "DT_VARIANT"}}}, {"name": "StatefulPartitionedCall/sequential_1/lstm_1_1/while/exit/_138", "op": "Exit", "input": ["StatefulPartitionedCall/sequential_1/lstm_1_1/while/StatefulPartitionedCall/sequential_1/lstm_1_1/time_switch/_130"], "attr": {"_has_manual_control_dependencies": {"b": true}, "T": {"type": "DT_INT32"}}}, {"name": "StatefulPartitionedCall/sequential_1/lstm_1_1/while/exit/_140", "op": "Exit", "input": ["StatefulPartitionedCall/sequential_1/lstm_1_1/while/StatefulPartitionedCall/sequential_1/lstm_1_1/zeros_switch/_132"], "attr": {"_has_manual_control_dependencies": {"b": true}, "T": {"type": "DT_FLOAT"}}}, {"name": "StatefulPartitionedCall/sequential_1/lstm_1_1/while/exit/_137", "op": "Exit", "input": ["StatefulPartitionedCall/sequential_1/lstm_1_1/while/StatefulPartitionedCall/sequential_1/lstm_1_1/Max_switch/_129"], "attr": {"_has_manual_control_dependencies": {"b": true}, "T": {"type": "DT_INT32"}}}, {"name": "StatefulPartitionedCall/sequential_1/lstm_1_1/TensorArrayV2Stack/TensorListStack", "op": "TensorListStack", "input": ["StatefulPartitionedCall/sequential_1/lstm_1_1/while/exit/_139", "StatefulPartitionedCall/sequential_1/lstm_1_1/TensorArrayV2Stack/TensorListStack/element_shape"], "attr": {"num_elements": {"i": "5"}, "element_dtype": {"type": "DT_FLOAT"}}}, {"name": "Func/StatefulPartitionedCall/sequential_1/lstm_1_1/while/body/_108/input_control_node/_275", "op": "NoOp", "input": ["^StatefulPartitionedCall/sequential_1/lstm_1_1/while/StatefulPartitionedCall/sequential_1/lstm_1_1/Max_switch/_129", "^StatefulPartitionedCall/sequential_1/lstm_1_1/while/StatefulPartitionedCall/sequential_1/lstm_1_1/TensorArrayUnstack/TensorListFromTensor_switch/_134", "^StatefulPartitionedCall/sequential_1/lstm_1_1/while/StatefulPartitionedCall/sequential_1/lstm_1_1/TensorArrayV2_1_switch/_131", "^StatefulPartitionedCall/sequential_1/lstm_1_1/while/StatefulPartitionedCall/sequential_1/lstm_1_1/time_switch/_130", "^StatefulPartitionedCall/sequential_1/lstm_1_1/while/loop_body_control/_135", "^StatefulPartitionedCall/sequential_1/lstm_1_1/while/StatefulPartitionedCall/sequential_1/lstm_1_1/zeros_1_switch/_133", "^StatefulPartitionedCall/sequential_1/lstm_1_1/while/StatefulPartitionedCall/sequential_1/lstm_1_1/zeros_switch/_132", "^StatefulPartitionedCall/sequential_1/lstm_1_1/while/enter/_116", "^StatefulPartitionedCall/sequential_1/lstm_1_1/while/enter/_117", "^StatefulPartitionedCall/sequential_1/lstm_1_1/while/enter/_118"], "attr": {"_has_manual_control_dependencies": {"b": true}}}, {"name": "StatefulPartitionedCall/sequential_1/lstm_2_1/TensorArrayUnstack/TensorListFromTensor", "op": "TensorListFromTensor", "input": ["StatefulPartitionedCall/sequential_1/lstm_1_1/TensorArrayV2Stack/TensorListStack", "StatefulPartitionedCall/sequential_1/lstm_2_1/TensorArrayUnstack/TensorListFromTensor/element_shape"], "attr": {"shape_type": {"type": "DT_INT32"}, "element_dtype": {"type": "DT_FLOAT"}}, "experimentalType": {"typeId": "TFT_PRODUCT", "args": [{"typeId": "TFT_ARRAY", "args": [{"typeId": "TFT_TENSOR", "args": [{"typeId": "TFT_FLOAT"}]}]}]}}, {"name": "StatefulPartitionedCall/sequential_1/lstm_1_1/transpose_1", "op": "Transpose", "input": ["StatefulPartitionedCall/sequential_1/lstm_1_1/TensorArrayV2Stack/TensorListStack", "StatefulPartitionedCall/sequential_1/lstm_1_1/transpose_1/perm"], "attr": {"Tperm": {"type": "DT_INT32"}, "T": {"type": "DT_FLOAT"}}}, {"name": "StatefulPartitionedCall/sequential_1/lstm_1_1/while/body/_108/sequential_1/lstm_1_1/while/add_1/y", "op": "Const", "input": ["^Func/StatefulPartitionedCall/sequential_1/lstm_1_1/while/body/_108/input_control_node/_275"], "attr": {"value": {"tensor": {"dtype": "DT_INT32", "tensorShape": {}}}, "dtype": {"type": "DT_INT32"}}}, {"name": "StatefulPartitionedCall/sequential_1/lstm_1_1/while/body/_108/sequential_1/lstm_1_1/while/lstm_cell_1/split/split_dim", "op": "Const", "input": ["^Func/StatefulPartitionedCall/sequential_1/lstm_1_1/while/body/_108/input_control_node/_275"], "attr": {"value": {"tensor": {"dtype": "DT_INT32", "tensorShape": {}}}, "dtype": {"type": "DT_INT32"}}}, {"name": "StatefulPartitionedCall/sequential_1/lstm_1_1/while/body/_108/sequential_1/lstm_1_1/while/add/y", "op": "Const", "input": ["^Func/StatefulPartitionedCall/sequential_1/lstm_1_1/while/body/_108/input_control_node/_275"], "attr": {"value": {"tensor": {"dtype": "DT_INT32", "tensorShape": {}}}, "dtype": {"type": "DT_INT32"}}}, {"name": "Func/StatefulPartitionedCall/sequential_1/lstm_1_1/while/body/_108/input/_278", "op": "Identity", "input": ["StatefulPartitionedCall/sequential_1/lstm_1_1/while/StatefulPartitionedCall/sequential_1/lstm_1_1/time_switch/_130:1", "^Func/StatefulPartitionedCall/sequential_1/lstm_1_1/while/body/_108/input_control_node/_275"], "attr": {"T": {"type": "DT_INT32"}}}, {"name": "StatefulPartitionedCall/sequential_1/lstm_1_1/while/body/_108/sequential_1/lstm_1_1/while/TensorArrayV2Read/TensorListGetItem/element_shape", "op": "Const", "input": ["^Func/StatefulPartitionedCall/sequential_1/lstm_1_1/while/body/_108/input_control_node/_275"], "attr": {"value": {"tensor": {"dtype": "DT_INT32", "tensorShape": {"dim": [{"size": "2"}]}}}, "dtype": {"type": "DT_INT32"}}}, {"name": "StatefulPartitionedCall/sequential_1/lstm_1_1/while/body/_108/sequential_1/lstm_1_1/while/lstm_cell_1/Cast/ReadVariableOp", "op": "Const", "input": ["^StatefulPartitionedCall/sequential_1/lstm_1_1/while/enter/_116", "^Func/StatefulPartitionedCall/sequential_1/lstm_1_1/while/body/_108/input_control_node/_275"], "attr": {"value": {"tensor": {"dtype": "DT_FLOAT", "tensorShape": {"dim": [{"size": "256"}, {"size": "256"}]}}}, "dtype": {"type": "DT_FLOAT"}}}, {"name": "StatefulPartitionedCall/sequential_1/lstm_1_1/while/body/_108/sequential_1/lstm_1_1/while/lstm_cell_1/Cast_1/ReadVariableOp", "op": "Const", "input": ["^StatefulPartitionedCall/sequential_1/lstm_1_1/while/enter/_117", "^Func/StatefulPartitionedCall/sequential_1/lstm_1_1/while/body/_108/input_control_node/_275"], "attr": {"value": {"tensor": {"dtype": "DT_FLOAT", "tensorShape": {"dim": [{"size": "64"}, {"size": "256"}]}}}, "dtype": {"type": "DT_FLOAT"}}}, {"name": "StatefulPartitionedCall/sequential_1/lstm_1_1/while/body/_108/sequential_1/lstm_1_1/while/lstm_cell_1/add_1/ReadVariableOp", "op": "Const", "input": ["^StatefulPartitionedCall/sequential_1/lstm_1_1/while/enter/_118", "^Func/StatefulPartitionedCall/sequential_1/lstm_1_1/while/body/_108/input_control_node/_275"], "attr": {"value": {"tensor": {"dtype": "DT_FLOAT", "tensorShape": {"dim": [{"size": "256"}]}}}, "dtype": {"type": "DT_FLOAT"}}}, {"name": "StatefulPartitionedCall/sequential_1/lstm_2_1/Shape", "op": "Shape", "input": ["StatefulPartitionedCall/sequential_1/lstm_1_1/transpose_1"], "attr": {"T": {"type": "DT_FLOAT"}, "out_type": {"type": "DT_INT32"}}, "experimentalType": {"typeId": "TFT_PRODUCT", "args": [{"typeId": "TFT_SHAPE_TENSOR", "args": [{"typeId": "TFT_INT32"}]}]}}, {"name": "StatefulPartitionedCall/sequential_1/lstm_1_1/while/body/_108/sequential_1/lstm_1_1/while/add_1", "op": "AddV2", "input": ["StatefulPartitionedCall/sequential_1/lstm_1_1/while/StatefulPartitionedCall/sequential_1/lstm_1_1/while/loop_counter_switch/_128:1", "StatefulPartitionedCall/sequential_1/lstm_1_1/while/body/_108/sequential_1/lstm_1_1/while/add_1/y"], "attr": {"T": {"type": "DT_INT32"}}}, {"name": "StatefulPartitionedCall/sequential_1/lstm_1_1/while/body/_108/sequential_1/lstm_1_1/while/add", "op": "AddV2", "input": ["Func/StatefulPartitionedCall/sequential_1/lstm_1_1/while/body/_108/input/_278", "StatefulPartitionedCall/sequential_1/lstm_1_1/while/body/_108/sequential_1/lstm_1_1/while/add/y"], "attr": {"T": {"type": "DT_INT32"}}}, {"name": "StatefulPartitionedCall/sequential_1/lstm_1_1/while/body/_108/sequential_1/lstm_1_1/while/TensorArrayV2Read/TensorListGetItem", "op": "TensorListGetItem", "input": ["StatefulPartitionedCall/sequential_1/lstm_1_1/while/StatefulPartitionedCall/sequential_1/lstm_1_1/TensorArrayUnstack/TensorListFromTensor_switch/_134:1", "Func/StatefulPartitionedCall/sequential_1/lstm_1_1/while/body/_108/input/_278", "StatefulPartitionedCall/sequential_1/lstm_1_1/while/body/_108/sequential_1/lstm_1_1/while/TensorArrayV2Read/TensorListGetItem/element_shape"], "attr": {"element_dtype": {"type": "DT_FLOAT"}}}, {"name": "StatefulPartitionedCall/sequential_1/lstm_1_1/while/body/_108/sequential_1/lstm_1_1/while/lstm_cell_1/MatMul_1", "op": "MatMul", "input": ["StatefulPartitionedCall/sequential_1/lstm_1_1/while/StatefulPartitionedCall/sequential_1/lstm_1_1/zeros_switch/_132:1", "StatefulPartitionedCall/sequential_1/lstm_1_1/while/body/_108/sequential_1/lstm_1_1/while/lstm_cell_1/Cast_1/ReadVariableOp"], "device": "/device:CPU:0", "attr": {"grad_a": {"b": false}, "transpose_a": {"b": false}, "T": {"type": "DT_FLOAT"}, "grad_b": {"b": false}, "transpose_b": {"b": false}}}, {"name": "Func/StatefulPartitionedCall/sequential_1/lstm_1_1/while/body/_108/output_control_node/_296", "op": "NoOp", "input": ["^StatefulPartitionedCall/sequential_1/lstm_1_1/while/body/_108/sequential_1/lstm_1_1/while/lstm_cell_1/Cast/ReadVariableOp", "^StatefulPartitionedCall/sequential_1/lstm_1_1/while/body/_108/sequential_1/lstm_1_1/while/lstm_cell_1/Cast_1/ReadVariableOp", "^StatefulPartitionedCall/sequential_1/lstm_1_1/while/body/_108/sequential_1/lstm_1_1/while/lstm_cell_1/add_1/ReadVariableOp"], "attr": {"_has_manual_control_dependencies": {"b": true}}}, {"name": "StatefulPartitionedCall/sequential_1/lstm_1_1/while/body/_108/sequential_1/lstm_1_1/while/NoOp", "op": "NoOp", "input": ["^StatefulPartitionedCall/sequential_1/lstm_1_1/while/body/_108/sequential_1/lstm_1_1/while/lstm_cell_1/Cast/ReadVariableOp", "^StatefulPartitionedCall/sequential_1/lstm_1_1/while/body/_108/sequential_1/lstm_1_1/while/lstm_cell_1/Cast_1/ReadVariableOp", "^StatefulPartitionedCall/sequential_1/lstm_1_1/while/body/_108/sequential_1/lstm_1_1/while/lstm_cell_1/add_1/ReadVariableOp"], "attr": {"_has_manual_control_dependencies": {"b": true}}}, {"name": "StatefulPartitionedCall/sequential_1/lstm_2_1/strided_slice", "op": "StridedSlice", "input": ["StatefulPartitionedCall/sequential_1/lstm_2_1/Shape", "StatefulPartitionedCall/sequential_1/lstm_2_1/strided_slice/stack", "StatefulPartitionedCall/sequential_1/lstm_2_1/strided_slice/stack_1", "StatefulPartitionedCall/sequential_1/lstm_2_1/strided_slice/stack_2"], "attr": {"shrink_axis_mask": {"i": "1"}, "new_axis_mask": {"i": "0"}, "Index": {"type": "DT_INT32"}, "begin_mask": {"i": "0"}, "end_mask": {"i": "0"}, "T": {"type": "DT_INT32"}, "ellipsis_mask": {"i": "0"}}}, {"name": "StatefulPartitionedCall/sequential_1/lstm_1_1/while/body/_108/sequential_1/lstm_1_1/while/lstm_cell_1/add", "op": "AddV2", "input": ["StatefulPartitionedCall/sequential_1/lstm_1_1/while/body/_108/sequential_1/lstm_1_1/while/lstm_cell_1/add_1/ReadVariableOp", "StatefulPartitionedCall/sequential_1/lstm_1_1/while/body/_108/sequential_1/lstm_1_1/while/lstm_cell_1/MatMul_1"], "attr": {"T": {"type": "DT_FLOAT"}}}, {"name": "StatefulPartitionedCall/sequential_1/lstm_1_1/while/next_iteration/_150", "op": "NextIteration", "input": ["StatefulPartitionedCall/sequential_1/lstm_1_1/while/StatefulPartitionedCall/sequential_1/lstm_1_1/TensorArrayUnstack/TensorListFromTensor_switch/_134:1", "^Func/StatefulPartitionedCall/sequential_1/lstm_1_1/while/body/_108/output_control_node/_296", "^Func/StatefulPartitionedCall/sequential_1/lstm_1_1/while/body/_108/input_control_node/_275"], "attr": {"T": {"type": "DT_VARIANT"}}}, {"name": "StatefulPartitionedCall/sequential_1/lstm_1_1/while/next_iteration/_145", "op": "NextIteration", "input": ["StatefulPartitionedCall/sequential_1/lstm_1_1/while/StatefulPartitionedCall/sequential_1/lstm_1_1/Max_switch/_129:1", "^Func/StatefulPartitionedCall/sequential_1/lstm_1_1/while/body/_108/output_control_node/_296", "^StatefulPartitionedCall/sequential_1/lstm_1_1/while/body/_108/sequential_1/lstm_1_1/while/NoOp", "^Func/StatefulPartitionedCall/sequential_1/lstm_1_1/while/body/_108/input_control_node/_275"], "attr": {"T": {"type": "DT_INT32"}}}, {"name": "StatefulPartitionedCall/sequential_1/lstm_1_1/while/next_iteration/_144", "op": "NextIteration", "input": ["StatefulPartitionedCall/sequential_1/lstm_1_1/while/body/_108/sequential_1/lstm_1_1/while/add_1", "^Func/StatefulPartitionedCall/sequential_1/lstm_1_1/while/body/_108/output_control_node/_296", "^StatefulPartitionedCall/sequential_1/lstm_1_1/while/body/_108/sequential_1/lstm_1_1/while/NoOp"], "attr": {"T": {"type": "DT_INT32"}}}, {"name": "StatefulPartitionedCall/sequential_1/lstm_1_1/while/next_iteration/_146", "op": "NextIteration", "input": ["StatefulPartitionedCall/sequential_1/lstm_1_1/while/body/_108/sequential_1/lstm_1_1/while/add", "^Func/StatefulPartitionedCall/sequential_1/lstm_1_1/while/body/_108/output_control_node/_296", "^StatefulPartitionedCall/sequential_1/lstm_1_1/while/body/_108/sequential_1/lstm_1_1/while/NoOp"], "attr": {"T": {"type": "DT_INT32"}}}, {"name": "StatefulPartitionedCall/sequential_1/lstm_2_1/zeros/packed", "op": "Pack", "input": ["StatefulPartitionedCall/sequential_1/lstm_2_1/strided_slice", "StatefulPartitionedCall/sequential_1/lstm_2_1/zeros/packed/1"], "attr": {"N": {"i": "2"}, "axis": {"i": "0"}, "T": {"type": "DT_INT32"}}}, {"name": "StatefulPartitionedCall/sequential_1/lstm_2_1/zeros_1/packed", "op": "Pack", "input": ["StatefulPartitionedCall/sequential_1/lstm_2_1/strided_slice", "StatefulPartitionedCall/sequential_1/lstm_2_1/zeros_1/packed/1"], "attr": {"N": {"i": "2"}, "axis": {"i": "0"}, "T": {"type": "DT_INT32"}}}, {"name": "StatefulPartitionedCall/sequential_1/lstm_1_1/while/body/_108/sequential_1/lstm_1_1/while/lstm_cell_1/add_1", "op": "_FusedMatMul", "input": ["StatefulPartitionedCall/sequential_1/lstm_1_1/while/body/_108/sequential_1/lstm_1_1/while/TensorArrayV2Read/TensorListGetItem", "StatefulPartitionedCall/sequential_1/lstm_1_1/while/body/_108/sequential_1/lstm_1_1/while/lstm_cell_1/Cast/ReadVariableOp", "StatefulPartitionedCall/sequential_1/lstm_1_1/while/body/_108/sequential_1/lstm_1_1/while/lstm_cell_1/add"], "device": "/device:CPU:0", "attr": {"transpose_a": {"b": false}, "transpose_b": {"b": false}, "fused_ops": {"list": {"s": ["Qmlhc0FkZA=="]}}, "num_args": {"i": "1"}, "leakyrelu_alpha": {"f": 0.2}, "epsilon": {"f": 0.0}, "T": {"type": "DT_FLOAT"}}}, {"name": "StatefulPartitionedCall/sequential_1/lstm_2_1/zeros", "op": "Fill", "input": ["StatefulPartitionedCall/sequential_1/lstm_2_1/zeros/packed", "StatefulPartitionedCall/sequential_1/lstm_2_1/zeros/Const"], "attr": {"T": {"type": "DT_FLOAT"}, "index_type": {"type": "DT_INT32"}}}, {"name": "StatefulPartitionedCall/sequential_1/lstm_2_1/zeros_1", "op": "Fill", "input": ["StatefulPartitionedCall/sequential_1/lstm_2_1/zeros_1/packed", "StatefulPartitionedCall/sequential_1/lstm_2_1/zeros_1/Const"], "attr": {"T": {"type": "DT_FLOAT"}, "index_type": {"type": "DT_INT32"}}}, {"name": "StatefulPartitionedCall/sequential_1/lstm_1_1/while/body/_108/sequential_1/lstm_1_1/while/lstm_cell_1/split", "op": "Split", "input": ["StatefulPartitionedCall/sequential_1/lstm_1_1/while/body/_108/sequential_1/lstm_1_1/while/lstm_cell_1/split/split_dim", "StatefulPartitionedCall/sequential_1/lstm_1_1/while/body/_108/sequential_1/lstm_1_1/while/lstm_cell_1/add_1"], "attr": {"num_split": {"i": "4"}, "T": {"type": "DT_FLOAT"}}}, {"name": "StatefulPartitionedCall/sequential_1/lstm_2_1/while/LoopControlInputs/_163", "op": "NoOp", "input": ["^StatefulPartitionedCall/sequential_1/lstm_2_1/TensorArrayUnstack/TensorListFromTensor", "^StatefulPartitionedCall/sequential_1/lstm_2_1/TensorArrayV2_1", "^StatefulPartitionedCall/sequential_1/lstm_2_1/zeros", "^StatefulPartitionedCall/sequential_1/lstm_2_1/zeros_1"], "attr": {"_has_manual_control_dependencies": {"b": true}}}, {"name": "StatefulPartitionedCall/sequential_1/lstm_1_1/while/body/_108/sequential_1/lstm_1_1/while/lstm_cell_1/Sigmoid", "op": "Sigmoid", "input": ["StatefulPartitionedCall/sequential_1/lstm_1_1/while/body/_108/sequential_1/lstm_1_1/while/lstm_cell_1/split"], "attr": {"T": {"type": "DT_FLOAT"}}}, {"name": "StatefulPartitionedCall/sequential_1/lstm_1_1/while/body/_108/sequential_1/lstm_1_1/while/lstm_cell_1/Sigmoid_1", "op": "Sigmoid", "input": ["StatefulPartitionedCall/sequential_1/lstm_1_1/while/body/_108/sequential_1/lstm_1_1/while/lstm_cell_1/split:1"], "attr": {"T": {"type": "DT_FLOAT"}}}, {"name": "StatefulPartitionedCall/sequential_1/lstm_1_1/while/body/_108/sequential_1/lstm_1_1/while/lstm_cell_1/Tanh", "op": "Tanh", "input": ["StatefulPartitionedCall/sequential_1/lstm_1_1/while/body/_108/sequential_1/lstm_1_1/while/lstm_cell_1/split:2"], "attr": {"T": {"type": "DT_FLOAT"}}}, {"name": "StatefulPartitionedCall/sequential_1/lstm_1_1/while/body/_108/sequential_1/lstm_1_1/while/lstm_cell_1/Sigmoid_2", "op": "Sigmoid", "input": ["StatefulPartitionedCall/sequential_1/lstm_1_1/while/body/_108/sequential_1/lstm_1_1/while/lstm_cell_1/split:3"], "attr": {"T": {"type": "DT_FLOAT"}}}, {"name": "StatefulPartitionedCall/sequential_1/lstm_2_1/while/enter/_158", "op": "Enter", "input": ["StatefulPartitionedCall/sequential_1/lstm_2_1/zeros_1", "^StatefulPartitionedCall/sequential_1/lstm_2_1/while/LoopControlInputs/_163"], "attr": {"is_constant": {"b": false}, "frame_name": {"s": "U3RhdGVmdWxQYXJ0aXRpb25lZENhbGwvc2VxdWVudGlhbF8xL2xzdG1fMl8xL3doaWxl"}, "T": {"type": "DT_FLOAT"}, "parallel_iterations": {"i": "32"}}}, {"name": "StatefulPartitionedCall/sequential_1/lstm_2_1/while/enter/_159", "op": "Enter", "input": ["StatefulPartitionedCall/sequential_1/lstm_2_1/TensorArrayUnstack/TensorListFromTensor", "^StatefulPartitionedCall/sequential_1/lstm_2_1/while/LoopControlInputs/_163"], "attr": {"is_constant": {"b": false}, "frame_name": {"s": "U3RhdGVmdWxQYXJ0aXRpb25lZENhbGwvc2VxdWVudGlhbF8xL2xzdG1fMl8xL3doaWxl"}, "T": {"type": "DT_VARIANT"}, "parallel_iterations": {"i": "32"}}}, {"name": "StatefulPartitionedCall/sequential_1/lstm_2_1/while/enter/_154", "op": "Enter", "input": ["StatefulPartitionedCall/sequential_1/lstm_2_1/Max", "^StatefulPartitionedCall/sequential_1/lstm_2_1/while/LoopControlInputs/_163"], "attr": {"is_constant": {"b": false}, "frame_name": {"s": "U3RhdGVmdWxQYXJ0aXRpb25lZENhbGwvc2VxdWVudGlhbF8xL2xzdG1fMl8xL3doaWxl"}, "T": {"type": "DT_INT32"}, "parallel_iterations": {"i": "32"}}}, {"name": "StatefulPartitionedCall/sequential_1/lstm_2_1/while/enter/_156", "op": "Enter", "input": ["StatefulPartitionedCall/sequential_1/lstm_2_1/TensorArrayV2_1", "^StatefulPartitionedCall/sequential_1/lstm_2_1/while/LoopControlInputs/_163"], "attr": {"is_constant": {"b": false}, "frame_name": {"s": "U3RhdGVmdWxQYXJ0aXRpb25lZENhbGwvc2VxdWVudGlhbF8xL2xzdG1fMl8xL3doaWxl"}, "T": {"type": "DT_VARIANT"}, "parallel_iterations": {"i": "32"}}}, {"name": "StatefulPartitionedCall/sequential_1/lstm_2_1/while/enter/_153", "op": "Enter", "input": ["StatefulPartitionedCall/sequential_1/lstm_2_1/while/loop_counter", "^StatefulPartitionedCall/sequential_1/lstm_2_1/while/LoopControlInputs/_163"], "attr": {"is_constant": {"b": false}, "frame_name": {"s": "U3RhdGVmdWxQYXJ0aXRpb25lZENhbGwvc2VxdWVudGlhbF8xL2xzdG1fMl8xL3doaWxl"}, "T": {"type": "DT_INT32"}, "parallel_iterations": {"i": "32"}}}, {"name": "StatefulPartitionedCall/sequential_1/lstm_2_1/while/enter/_157", "op": "Enter", "input": ["StatefulPartitionedCall/sequential_1/lstm_2_1/zeros", "^StatefulPartitionedCall/sequential_1/lstm_2_1/while/LoopControlInputs/_163"], "attr": {"is_constant": {"b": false}, "frame_name": {"s": "U3RhdGVmdWxQYXJ0aXRpb25lZENhbGwvc2VxdWVudGlhbF8xL2xzdG1fMl8xL3doaWxl"}, "T": {"type": "DT_FLOAT"}, "parallel_iterations": {"i": "32"}}}, {"name": "StatefulPartitionedCall/sequential_1/lstm_2_1/while/enter/_155", "op": "Enter", "input": ["StatefulPartitionedCall/sequential_1/lstm_2_1/time", "^StatefulPartitionedCall/sequential_1/lstm_2_1/while/LoopControlInputs/_163"], "attr": {"is_constant": {"b": false}, "frame_name": {"s": "U3RhdGVmdWxQYXJ0aXRpb25lZENhbGwvc2VxdWVudGlhbF8xL2xzdG1fMl8xL3doaWxl"}, "T": {"type": "DT_INT32"}, "parallel_iterations": {"i": "32"}}}, {"name": "StatefulPartitionedCall/sequential_1/lstm_2_1/while/enter/_160", "op": "Enter", "input": ["Func/StatefulPartitionedCall/input/_10", "^StatefulPartitionedCall/sequential_1/lstm_2_1/while/LoopControlInputs/_163"], "attr": {"is_constant": {"b": true}, "frame_name": {"s": "U3RhdGVmdWxQYXJ0aXRpb25lZENhbGwvc2VxdWVudGlhbF8xL2xzdG1fMl8xL3doaWxl"}, "T": {"type": "DT_FLOAT"}, "_has_manual_control_dependencies": {"b": true}, "parallel_iterations": {"i": "32"}}}, {"name": "StatefulPartitionedCall/sequential_1/lstm_2_1/while/enter/_161", "op": "Enter", "input": ["Func/StatefulPartitionedCall/input/_11", "^StatefulPartitionedCall/sequential_1/lstm_2_1/while/LoopControlInputs/_163"], "attr": {"is_constant": {"b": true}, "frame_name": {"s": "U3RhdGVmdWxQYXJ0aXRpb25lZENhbGwvc2VxdWVudGlhbF8xL2xzdG1fMl8xL3doaWxl"}, "T": {"type": "DT_FLOAT"}, "_has_manual_control_dependencies": {"b": true}, "parallel_iterations": {"i": "32"}}}, {"name": "StatefulPartitionedCall/sequential_1/lstm_2_1/while/enter/_162", "op": "Enter", "input": ["Func/StatefulPartitionedCall/input/_12", "^StatefulPartitionedCall/sequential_1/lstm_2_1/while/LoopControlInputs/_163"], "attr": {"is_constant": {"b": true}, "frame_name": {"s": "U3RhdGVmdWxQYXJ0aXRpb25lZENhbGwvc2VxdWVudGlhbF8xL2xzdG1fMl8xL3doaWxl"}, "T": {"type": "DT_FLOAT"}, "_has_manual_control_dependencies": {"b": true}, "parallel_iterations": {"i": "32"}}}, {"name": "StatefulPartitionedCall/sequential_1/lstm_1_1/while/body/_108/sequential_1/lstm_1_1/while/lstm_cell_1/mul", "op": "Mul", "input": ["StatefulPartitionedCall/sequential_1/lstm_1_1/while/body/_108/sequential_1/lstm_1_1/while/lstm_cell_1/Sigmoid_1", "StatefulPartitionedCall/sequential_1/lstm_1_1/while/StatefulPartitionedCall/sequential_1/lstm_1_1/zeros_1_switch/_133:1"], "attr": {"T": {"type": "DT_FLOAT"}}}, {"name": "StatefulPartitionedCall/sequential_1/lstm_1_1/while/body/_108/sequential_1/lstm_1_1/while/lstm_cell_1/mul_1", "op": "Mul", "input": ["StatefulPartitionedCall/sequential_1/lstm_1_1/while/body/_108/sequential_1/lstm_1_1/while/lstm_cell_1/Sigmoid", "StatefulPartitionedCall/sequential_1/lstm_1_1/while/body/_108/sequential_1/lstm_1_1/while/lstm_cell_1/Tanh"], "attr": {"T": {"type": "DT_FLOAT"}}}, {"name": "StatefulPartitionedCall/sequential_1/lstm_2_1/while/merge/_169", "op": "Merge", "input": ["StatefulPartitionedCall/sequential_1/lstm_2_1/while/enter/_158", "StatefulPartitionedCall/sequential_1/lstm_2_1/while/next_iteration/_193"], "attr": {"N": {"i": "2"}, "T": {"type": "DT_FLOAT"}}}, {"name": "StatefulPartitionedCall/sequential_1/lstm_2_1/while/merge/_170", "op": "Merge", "input": ["StatefulPartitionedCall/sequential_1/lstm_2_1/while/enter/_159", "StatefulPartitionedCall/sequential_1/lstm_2_1/while/next_iteration/_194"], "attr": {"N": {"i": "2"}, "T": {"type": "DT_VARIANT"}}}, {"name": "StatefulPartitionedCall/sequential_1/lstm_2_1/while/merge/_165", "op": "Merge", "input": ["StatefulPartitionedCall/sequential_1/lstm_2_1/while/enter/_154", "StatefulPartitionedCall/sequential_1/lstm_2_1/while/next_iteration/_189"], "attr": {"N": {"i": "2"}, "_has_manual_control_dependencies": {"b": true}, "T": {"type": "DT_INT32"}}}, {"name": "StatefulPartitionedCall/sequential_1/lstm_2_1/while/merge/_167", "op": "Merge", "input": ["StatefulPartitionedCall/sequential_1/lstm_2_1/while/enter/_156", "StatefulPartitionedCall/sequential_1/lstm_2_1/while/next_iteration/_191"], "attr": {"N": {"i": "2"}, "T": {"type": "DT_VARIANT"}}}, {"name": "StatefulPartitionedCall/sequential_1/lstm_2_1/while/merge/_164", "op": "Merge", "input": ["StatefulPartitionedCall/sequential_1/lstm_2_1/while/enter/_153", "StatefulPartitionedCall/sequential_1/lstm_2_1/while/next_iteration/_188"], "attr": {"N": {"i": "2"}, "_has_manual_control_dependencies": {"b": true}, "T": {"type": "DT_INT32"}}}, {"name": "StatefulPartitionedCall/sequential_1/lstm_2_1/while/merge/_168", "op": "Merge", "input": ["StatefulPartitionedCall/sequential_1/lstm_2_1/while/enter/_157", "StatefulPartitionedCall/sequential_1/lstm_2_1/while/next_iteration/_192"], "attr": {"N": {"i": "2"}, "T": {"type": "DT_FLOAT"}}}, {"name": "StatefulPartitionedCall/sequential_1/lstm_2_1/while/merge/_166", "op": "Merge", "input": ["StatefulPartitionedCall/sequential_1/lstm_2_1/while/enter/_155", "StatefulPartitionedCall/sequential_1/lstm_2_1/while/next_iteration/_190"], "attr": {"N": {"i": "2"}, "T": {"type": "DT_INT32"}}}, {"name": "StatefulPartitionedCall/sequential_1/lstm_1_1/while/body/_108/sequential_1/lstm_1_1/while/lstm_cell_1/add_2", "op": "AddV2", "input": ["StatefulPartitionedCall/sequential_1/lstm_1_1/while/body/_108/sequential_1/lstm_1_1/while/lstm_cell_1/mul", "StatefulPartitionedCall/sequential_1/lstm_1_1/while/body/_108/sequential_1/lstm_1_1/while/lstm_cell_1/mul_1"], "attr": {"T": {"type": "DT_FLOAT"}}}, {"name": "Func/StatefulPartitionedCall/sequential_1/lstm_2_1/while/cond/_151/input_control_node/_297", "op": "NoOp", "input": ["^StatefulPartitionedCall/sequential_1/lstm_2_1/while/enter/_160", "^StatefulPartitionedCall/sequential_1/lstm_2_1/while/enter/_161", "^StatefulPartitionedCall/sequential_1/lstm_2_1/while/enter/_162", "^StatefulPartitionedCall/sequential_1/lstm_2_1/while/merge/_164", "^StatefulPartitionedCall/sequential_1/lstm_2_1/while/merge/_165", "^StatefulPartitionedCall/sequential_1/lstm_2_1/while/merge/_166", "^StatefulPartitionedCall/sequential_1/lstm_2_1/while/merge/_167", "^StatefulPartitionedCall/sequential_1/lstm_2_1/while/merge/_168", "^StatefulPartitionedCall/sequential_1/lstm_2_1/while/merge/_169", "^StatefulPartitionedCall/sequential_1/lstm_2_1/while/merge/_170"], "attr": {"_has_manual_control_dependencies": {"b": true}}}, {"name": "StatefulPartitionedCall/sequential_1/lstm_1_1/while/body/_108/sequential_1/lstm_1_1/while/lstm_cell_1/Tanh_1", "op": "Tanh", "input": ["StatefulPartitionedCall/sequential_1/lstm_1_1/while/body/_108/sequential_1/lstm_1_1/while/lstm_cell_1/add_2"], "attr": {"T": {"type": "DT_FLOAT"}}}, {"name": "StatefulPartitionedCall/sequential_1/lstm_1_1/while/next_iteration/_149", "op": "NextIteration", "input": ["StatefulPartitionedCall/sequential_1/lstm_1_1/while/body/_108/sequential_1/lstm_1_1/while/lstm_cell_1/add_2", "^Func/StatefulPartitionedCall/sequential_1/lstm_1_1/while/body/_108/output_control_node/_296", "^StatefulPartitionedCall/sequential_1/lstm_1_1/while/body/_108/sequential_1/lstm_1_1/while/NoOp"], "attr": {"T": {"type": "DT_FLOAT"}}}, {"name": "StatefulPartitionedCall/sequential_1/lstm_2_1/while/cond/_151/sequential_1/lstm_2_1/while/Less_1", "op": "Less", "input": ["StatefulPartitionedCall/sequential_1/lstm_2_1/while/merge/_164", "StatefulPartitionedCall/sequential_1/lstm_2_1/while/merge/_165", "^Func/StatefulPartitionedCall/sequential_1/lstm_2_1/while/cond/_151/input_control_node/_297"], "attr": {"T": {"type": "DT_INT32"}}}, {"name": "StatefulPartitionedCall/sequential_1/lstm_2_1/while/cond/_151/sequential_1/lstm_2_1/while/Less/y", "op": "Const", "input": ["^Func/StatefulPartitionedCall/sequential_1/lstm_2_1/while/cond/_151/input_control_node/_297"], "attr": {"value": {"tensor": {"dtype": "DT_INT32", "tensorShape": {}}}, "dtype": {"type": "DT_INT32"}}}, {"name": "StatefulPartitionedCall/sequential_1/lstm_1_1/while/body/_108/sequential_1/lstm_1_1/while/lstm_cell_1/mul_2", "op": "Mul", "input": ["StatefulPartitionedCall/sequential_1/lstm_1_1/while/body/_108/sequential_1/lstm_1_1/while/lstm_cell_1/Sigmoid_2", "StatefulPartitionedCall/sequential_1/lstm_1_1/while/body/_108/sequential_1/lstm_1_1/while/lstm_cell_1/Tanh_1"], "attr": {"T": {"type": "DT_FLOAT"}}}, {"name": "StatefulPartitionedCall/sequential_1/lstm_2_1/while/cond/_151/sequential_1/lstm_2_1/while/Less", "op": "Less", "input": ["StatefulPartitionedCall/sequential_1/lstm_2_1/while/merge/_166", "StatefulPartitionedCall/sequential_1/lstm_2_1/while/cond/_151/sequential_1/lstm_2_1/while/Less/y"], "attr": {"T": {"type": "DT_INT32"}}}, {"name": "StatefulPartitionedCall/sequential_1/lstm_1_1/while/body/_108/sequential_1/lstm_1_1/while/TensorArrayV2Write/TensorListSetItem", "op": "TensorListSetItem", "input": ["StatefulPartitionedCall/sequential_1/lstm_1_1/while/StatefulPartitionedCall/sequential_1/lstm_1_1/TensorArrayV2_1_switch/_131:1", "Func/StatefulPartitionedCall/sequential_1/lstm_1_1/while/body/_108/input/_278", "StatefulPartitionedCall/sequential_1/lstm_1_1/while/body/_108/sequential_1/lstm_1_1/while/lstm_cell_1/mul_2"], "attr": {"element_dtype": {"type": "DT_FLOAT"}, "resize_if_index_out_of_bounds": {"b": false}}, "experimentalType": {"typeId": "TFT_PRODUCT", "args": [{"typeId": "TFT_ARRAY", "args": [{"typeId": "TFT_TENSOR", "args": [{"typeId": "TFT_FLOAT"}]}]}]}}, {"name": "StatefulPartitionedCall/sequential_1/lstm_1_1/while/next_iteration/_148", "op": "NextIteration", "input": ["StatefulPartitionedCall/sequential_1/lstm_1_1/while/body/_108/sequential_1/lstm_1_1/while/lstm_cell_1/mul_2", "^Func/StatefulPartitionedCall/sequential_1/lstm_1_1/while/body/_108/output_control_node/_296", "^StatefulPartitionedCall/sequential_1/lstm_1_1/while/body/_108/sequential_1/lstm_1_1/while/NoOp"], "attr": {"T": {"type": "DT_FLOAT"}}}, {"name": "StatefulPartitionedCall/sequential_1/lstm_2_1/while/cond/_151/sequential_1/lstm_2_1/while/LogicalAnd", "op": "LogicalAnd", "input": ["StatefulPartitionedCall/sequential_1/lstm_2_1/while/cond/_151/sequential_1/lstm_2_1/while/Less_1", "StatefulPartitionedCall/sequential_1/lstm_2_1/while/cond/_151/sequential_1/lstm_2_1/while/Less"]}, {"name": "StatefulPartitionedCall/sequential_1/lstm_1_1/while/next_iteration/_147", "op": "NextIteration", "input": ["StatefulPartitionedCall/sequential_1/lstm_1_1/while/body/_108/sequential_1/lstm_1_1/while/TensorArrayV2Write/TensorListSetItem", "^Func/StatefulPartitionedCall/sequential_1/lstm_1_1/while/body/_108/output_control_node/_296", "^StatefulPartitionedCall/sequential_1/lstm_1_1/while/body/_108/sequential_1/lstm_1_1/while/NoOp"], "attr": {"T": {"type": "DT_VARIANT"}}}, {"name": "StatefulPartitionedCall/sequential_1/lstm_2_1/while/LoopCond/_171", "op": "LoopCond", "input": ["StatefulPartitionedCall/sequential_1/lstm_2_1/while/cond/_151/sequential_1/lstm_2_1/while/LogicalAnd"]}, {"name": "StatefulPartitionedCall/sequential_1/lstm_2_1/while/StatefulPartitionedCall/sequential_1/lstm_2_1/Max_switch/_173", "op": "Switch", "input": ["StatefulPartitionedCall/sequential_1/lstm_2_1/while/merge/_165", "StatefulPartitionedCall/sequential_1/lstm_2_1/while/LoopCond/_171"], "attr": {"_has_manual_control_dependencies": {"b": true}, "T": {"type": "DT_INT32"}}}, {"name": "StatefulPartitionedCall/sequential_1/lstm_2_1/while/StatefulPartitionedCall/sequential_1/lstm_2_1/TensorArrayV2_1_switch/_175", "op": "Switch", "input": ["StatefulPartitionedCall/sequential_1/lstm_2_1/while/merge/_167", "StatefulPartitionedCall/sequential_1/lstm_2_1/while/LoopCond/_171"], "attr": {"T": {"type": "DT_VARIANT"}}}, {"name": "StatefulPartitionedCall/sequential_1/lstm_2_1/while/StatefulPartitionedCall/sequential_1/lstm_2_1/while/loop_counter_switch/_172", "op": "Switch", "input": ["StatefulPartitionedCall/sequential_1/lstm_2_1/while/merge/_164", "StatefulPartitionedCall/sequential_1/lstm_2_1/while/LoopCond/_171"], "attr": {"_has_manual_control_dependencies": {"b": true}, "T": {"type": "DT_INT32"}}}, {"name": "StatefulPartitionedCall/sequential_1/lstm_2_1/while/StatefulPartitionedCall/sequential_1/lstm_2_1/TensorArrayUnstack/TensorListFromTensor_switch/_178", "op": "Switch", "input": ["StatefulPartitionedCall/sequential_1/lstm_2_1/while/merge/_170", "StatefulPartitionedCall/sequential_1/lstm_2_1/while/LoopCond/_171"], "attr": {"T": {"type": "DT_VARIANT"}}}, {"name": "StatefulPartitionedCall/sequential_1/lstm_2_1/while/StatefulPartitionedCall/sequential_1/lstm_2_1/time_switch/_174", "op": "Switch", "input": ["StatefulPartitionedCall/sequential_1/lstm_2_1/while/merge/_166", "StatefulPartitionedCall/sequential_1/lstm_2_1/while/LoopCond/_171"], "attr": {"_has_manual_control_dependencies": {"b": true}, "T": {"type": "DT_INT32"}}}, {"name": "StatefulPartitionedCall/sequential_1/lstm_2_1/while/StatefulPartitionedCall/sequential_1/lstm_2_1/zeros_switch/_176", "op": "Switch", "input": ["StatefulPartitionedCall/sequential_1/lstm_2_1/while/merge/_168", "StatefulPartitionedCall/sequential_1/lstm_2_1/while/LoopCond/_171"], "attr": {"T": {"type": "DT_FLOAT"}}}, {"name": "StatefulPartitionedCall/sequential_1/lstm_2_1/while/StatefulPartitionedCall/sequential_1/lstm_2_1/zeros_1_switch/_177", "op": "Switch", "input": ["StatefulPartitionedCall/sequential_1/lstm_2_1/while/merge/_169", "StatefulPartitionedCall/sequential_1/lstm_2_1/while/LoopCond/_171"], "attr": {"T": {"type": "DT_FLOAT"}}}, {"name": "StatefulPartitionedCall/sequential_1/lstm_2_1/while/exit/_181", "op": "Exit", "input": ["StatefulPartitionedCall/sequential_1/lstm_2_1/while/StatefulPartitionedCall/sequential_1/lstm_2_1/Max_switch/_173"], "attr": {"_has_manual_control_dependencies": {"b": true}, "T": {"type": "DT_INT32"}}}, {"name": "StatefulPartitionedCall/sequential_1/lstm_2_1/while/exit/_183", "op": "Exit", "input": ["StatefulPartitionedCall/sequential_1/lstm_2_1/while/StatefulPartitionedCall/sequential_1/lstm_2_1/TensorArrayV2_1_switch/_175"], "attr": {"_has_manual_control_dependencies": {"b": true}, "T": {"type": "DT_VARIANT"}}}, {"name": "StatefulPartitionedCall/sequential_1/lstm_2_1/while/exit/_180", "op": "Exit", "input": ["StatefulPartitionedCall/sequential_1/lstm_2_1/while/StatefulPartitionedCall/sequential_1/lstm_2_1/while/loop_counter_switch/_172"], "attr": {"_has_manual_control_dependencies": {"b": true}, "T": {"type": "DT_INT32"}}}, {"name": "StatefulPartitionedCall/sequential_1/lstm_2_1/while/loop_body_control/_179", "op": "Identity", "input": ["StatefulPartitionedCall/sequential_1/lstm_2_1/while/StatefulPartitionedCall/sequential_1/lstm_2_1/while/loop_counter_switch/_172:1"], "attr": {"_has_manual_control_dependencies": {"b": true}, "T": {"type": "DT_INT32"}}}, {"name": "StatefulPartitionedCall/sequential_1/lstm_2_1/while/exit/_186", "op": "Exit", "input": ["StatefulPartitionedCall/sequential_1/lstm_2_1/while/StatefulPartitionedCall/sequential_1/lstm_2_1/TensorArrayUnstack/TensorListFromTensor_switch/_178"], "attr": {"_has_manual_control_dependencies": {"b": true}, "T": {"type": "DT_VARIANT"}}}, {"name": "StatefulPartitionedCall/sequential_1/lstm_2_1/while/exit/_182", "op": "Exit", "input": ["StatefulPartitionedCall/sequential_1/lstm_2_1/while/StatefulPartitionedCall/sequential_1/lstm_2_1/time_switch/_174"], "attr": {"_has_manual_control_dependencies": {"b": true}, "T": {"type": "DT_INT32"}}}, {"name": "StatefulPartitionedCall/sequential_1/lstm_2_1/while/exit/_184", "op": "Exit", "input": ["StatefulPartitionedCall/sequential_1/lstm_2_1/while/StatefulPartitionedCall/sequential_1/lstm_2_1/zeros_switch/_176"], "attr": {"_has_manual_control_dependencies": {"b": true}, "T": {"type": "DT_FLOAT"}}}, {"name": "StatefulPartitionedCall/sequential_1/lstm_2_1/while/exit/_185", "op": "Exit", "input": ["StatefulPartitionedCall/sequential_1/lstm_2_1/while/StatefulPartitionedCall/sequential_1/lstm_2_1/zeros_1_switch/_177"], "attr": {"_has_manual_control_dependencies": {"b": true}, "T": {"type": "DT_FLOAT"}}}, {"name": "StatefulPartitionedCall/sequential_1/lstm_2_1/TensorArrayV2Stack/TensorListStack", "op": "TensorListStack", "input": ["StatefulPartitionedCall/sequential_1/lstm_2_1/while/exit/_183", "StatefulPartitionedCall/sequential_1/lstm_2_1/TensorArrayV2Stack/TensorListStack/element_shape"], "attr": {"num_elements": {"i": "1"}, "element_dtype": {"type": "DT_FLOAT"}}}, {"name": "Func/StatefulPartitionedCall/sequential_1/lstm_2_1/while/body/_152/input_control_node/_309", "op": "NoOp", "input": ["^StatefulPartitionedCall/sequential_1/lstm_2_1/while/StatefulPartitionedCall/sequential_1/lstm_2_1/Max_switch/_173", "^StatefulPartitionedCall/sequential_1/lstm_2_1/while/StatefulPartitionedCall/sequential_1/lstm_2_1/TensorArrayUnstack/TensorListFromTensor_switch/_178", "^StatefulPartitionedCall/sequential_1/lstm_2_1/while/StatefulPartitionedCall/sequential_1/lstm_2_1/TensorArrayV2_1_switch/_175", "^StatefulPartitionedCall/sequential_1/lstm_2_1/while/StatefulPartitionedCall/sequential_1/lstm_2_1/time_switch/_174", "^StatefulPartitionedCall/sequential_1/lstm_2_1/while/loop_body_control/_179", "^StatefulPartitionedCall/sequential_1/lstm_2_1/while/StatefulPartitionedCall/sequential_1/lstm_2_1/zeros_1_switch/_177", "^StatefulPartitionedCall/sequential_1/lstm_2_1/while/StatefulPartitionedCall/sequential_1/lstm_2_1/zeros_switch/_176", "^StatefulPartitionedCall/sequential_1/lstm_2_1/while/enter/_160", "^StatefulPartitionedCall/sequential_1/lstm_2_1/while/enter/_161", "^StatefulPartitionedCall/sequential_1/lstm_2_1/while/enter/_162"], "attr": {"_has_manual_control_dependencies": {"b": true}}}, {"name": "StatefulPartitionedCall/sequential_1/lstm_2_1/strided_slice_3", "op": "StridedSlice", "input": ["StatefulPartitionedCall/sequential_1/lstm_2_1/TensorArrayV2Stack/TensorListStack", "StatefulPartitionedCall/sequential_1/lstm_2_1/strided_slice_3/stack", "StatefulPartitionedCall/sequential_1/lstm_2_1/strided_slice_3/stack_1", "StatefulPartitionedCall/sequential_1/lstm_2_1/strided_slice_3/stack_2"], "attr": {"shrink_axis_mask": {"i": "1"}, "Index": {"type": "DT_INT32"}, "new_axis_mask": {"i": "0"}, "begin_mask": {"i": "0"}, "T": {"type": "DT_FLOAT"}, "end_mask": {"i": "0"}, "ellipsis_mask": {"i": "0"}}}, {"name": "StatefulPartitionedCall/sequential_1/lstm_2_1/while/body/_152/sequential_1/lstm_2_1/while/TensorArrayV2Write/TensorListSetItem/index", "op": "Const", "input": ["^Func/StatefulPartitionedCall/sequential_1/lstm_2_1/while/body/_152/input_control_node/_309"], "attr": {"value": {"tensor": {"dtype": "DT_INT32", "tensorShape": {}}}, "dtype": {"type": "DT_INT32"}}}, {"name": "StatefulPartitionedCall/sequential_1/lstm_2_1/while/body/_152/sequential_1/lstm_2_1/while/add_1/y", "op": "Const", "input": ["^Func/StatefulPartitionedCall/sequential_1/lstm_2_1/while/body/_152/input_control_node/_309"], "attr": {"value": {"tensor": {"dtype": "DT_INT32", "tensorShape": {}}}, "dtype": {"type": "DT_INT32"}}}, {"name": "StatefulPartitionedCall/sequential_1/lstm_2_1/while/body/_152/sequential_1/lstm_2_1/while/lstm_cell_1/split/split_dim", "op": "Const", "input": ["^Func/StatefulPartitionedCall/sequential_1/lstm_2_1/while/body/_152/input_control_node/_309"], "attr": {"value": {"tensor": {"dtype": "DT_INT32", "tensorShape": {}}}, "dtype": {"type": "DT_INT32"}}}, {"name": "StatefulPartitionedCall/sequential_1/lstm_2_1/while/body/_152/sequential_1/lstm_2_1/while/add/y", "op": "Const", "input": ["^Func/StatefulPartitionedCall/sequential_1/lstm_2_1/while/body/_152/input_control_node/_309"], "attr": {"value": {"tensor": {"dtype": "DT_INT32", "tensorShape": {}}}, "dtype": {"type": "DT_INT32"}}}, {"name": "StatefulPartitionedCall/sequential_1/lstm_2_1/while/body/_152/sequential_1/lstm_2_1/while/TensorArrayV2Read/TensorListGetItem/element_shape", "op": "Const", "input": ["^Func/StatefulPartitionedCall/sequential_1/lstm_2_1/while/body/_152/input_control_node/_309"], "attr": {"value": {"tensor": {"dtype": "DT_INT32", "tensorShape": {"dim": [{"size": "2"}]}}}, "dtype": {"type": "DT_INT32"}}}, {"name": "StatefulPartitionedCall/sequential_1/lstm_2_1/while/body/_152/sequential_1/lstm_2_1/while/lstm_cell_1/Cast/ReadVariableOp", "op": "Const", "input": ["^StatefulPartitionedCall/sequential_1/lstm_2_1/while/enter/_160", "^Func/StatefulPartitionedCall/sequential_1/lstm_2_1/while/body/_152/input_control_node/_309"], "attr": {"value": {"tensor": {"dtype": "DT_FLOAT", "tensorShape": {"dim": [{"size": "64"}, {"size": "128"}]}}}, "dtype": {"type": "DT_FLOAT"}}}, {"name": "StatefulPartitionedCall/sequential_1/lstm_2_1/while/body/_152/sequential_1/lstm_2_1/while/lstm_cell_1/Cast_1/ReadVariableOp", "op": "Const", "input": ["^StatefulPartitionedCall/sequential_1/lstm_2_1/while/enter/_161", "^Func/StatefulPartitionedCall/sequential_1/lstm_2_1/while/body/_152/input_control_node/_309"], "attr": {"value": {"tensor": {"dtype": "DT_FLOAT", "tensorShape": {"dim": [{"size": "32"}, {"size": "128"}]}}}, "dtype": {"type": "DT_FLOAT"}}}, {"name": "StatefulPartitionedCall/sequential_1/lstm_2_1/while/body/_152/sequential_1/lstm_2_1/while/lstm_cell_1/add_1/ReadVariableOp", "op": "Const", "input": ["^StatefulPartitionedCall/sequential_1/lstm_2_1/while/enter/_162", "^Func/StatefulPartitionedCall/sequential_1/lstm_2_1/while/body/_152/input_control_node/_309"], "attr": {"value": {"tensor": {"dtype": "DT_FLOAT", "tensorShape": {"dim": [{"size": "128"}]}}}, "dtype": {"type": "DT_FLOAT"}}}, {"name": "StatefulPartitionedCall/sequential_1/dense_1/Relu", "op": "_FusedMatMul", "input": ["StatefulPartitionedCall/sequential_1/lstm_2_1/strided_slice_3", "StatefulPartitionedCall/sequential_1/dense_1/Cast/ReadVariableOp", "StatefulPartitionedCall/sequential_1/dense_1/Add/ReadVariableOp"], "device": "/device:CPU:0", "attr": {"transpose_a": {"b": false}, "transpose_b": {"b": false}, "fused_ops": {"list": {"s": ["Qmlhc0FkZA==", "UmVsdQ=="]}}, "num_args": {"i": "1"}, "leakyrelu_alpha": {"f": 0.2}, "epsilon": {"f": 0.0}, "T": {"type": "DT_FLOAT"}}}, {"name": "StatefulPartitionedCall/sequential_1/lstm_2_1/while/body/_152/sequential_1/lstm_2_1/while/add_1", "op": "AddV2", "input": ["StatefulPartitionedCall/sequential_1/lstm_2_1/while/StatefulPartitionedCall/sequential_1/lstm_2_1/while/loop_counter_switch/_172:1", "StatefulPartitionedCall/sequential_1/lstm_2_1/while/body/_152/sequential_1/lstm_2_1/while/add_1/y"], "attr": {"T": {"type": "DT_INT32"}}}, {"name": "StatefulPartitionedCall/sequential_1/lstm_2_1/while/body/_152/sequential_1/lstm_2_1/while/add", "op": "AddV2", "input": ["StatefulPartitionedCall/sequential_1/lstm_2_1/while/StatefulPartitionedCall/sequential_1/lstm_2_1/time_switch/_174:1", "StatefulPartitionedCall/sequential_1/lstm_2_1/while/body/_152/sequential_1/lstm_2_1/while/add/y"], "attr": {"T": {"type": "DT_INT32"}}}, {"name": "StatefulPartitionedCall/sequential_1/lstm_2_1/while/body/_152/sequential_1/lstm_2_1/while/TensorArrayV2Read/TensorListGetItem", "op": "TensorListGetItem", "input": ["StatefulPartitionedCall/sequential_1/lstm_2_1/while/StatefulPartitionedCall/sequential_1/lstm_2_1/TensorArrayUnstack/TensorListFromTensor_switch/_178:1", "StatefulPartitionedCall/sequential_1/lstm_2_1/while/StatefulPartitionedCall/sequential_1/lstm_2_1/time_switch/_174:1", "StatefulPartitionedCall/sequential_1/lstm_2_1/while/body/_152/sequential_1/lstm_2_1/while/TensorArrayV2Read/TensorListGetItem/element_shape"], "attr": {"element_dtype": {"type": "DT_FLOAT"}}}, {"name": "StatefulPartitionedCall/sequential_1/lstm_2_1/while/body/_152/sequential_1/lstm_2_1/while/lstm_cell_1/MatMul_1", "op": "MatMul", "input": ["StatefulPartitionedCall/sequential_1/lstm_2_1/while/StatefulPartitionedCall/sequential_1/lstm_2_1/zeros_switch/_176:1", "StatefulPartitionedCall/sequential_1/lstm_2_1/while/body/_152/sequential_1/lstm_2_1/while/lstm_cell_1/Cast_1/ReadVariableOp"], "device": "/device:CPU:0", "attr": {"transpose_a": {"b": false}, "grad_a": {"b": false}, "T": {"type": "DT_FLOAT"}, "grad_b": {"b": false}, "transpose_b": {"b": false}}}, {"name": "Func/StatefulPartitionedCall/sequential_1/lstm_2_1/while/body/_152/output_control_node/_330", "op": "NoOp", "input": ["^StatefulPartitionedCall/sequential_1/lstm_2_1/while/body/_152/sequential_1/lstm_2_1/while/lstm_cell_1/Cast/ReadVariableOp", "^StatefulPartitionedCall/sequential_1/lstm_2_1/while/body/_152/sequential_1/lstm_2_1/while/lstm_cell_1/Cast_1/ReadVariableOp", "^StatefulPartitionedCall/sequential_1/lstm_2_1/while/body/_152/sequential_1/lstm_2_1/while/lstm_cell_1/add_1/ReadVariableOp"], "attr": {"_has_manual_control_dependencies": {"b": true}}}, {"name": "StatefulPartitionedCall/sequential_1/lstm_2_1/while/body/_152/sequential_1/lstm_2_1/while/NoOp", "op": "NoOp", "input": ["^StatefulPartitionedCall/sequential_1/lstm_2_1/while/body/_152/sequential_1/lstm_2_1/while/lstm_cell_1/Cast/ReadVariableOp", "^StatefulPartitionedCall/sequential_1/lstm_2_1/while/body/_152/sequential_1/lstm_2_1/while/lstm_cell_1/Cast_1/ReadVariableOp", "^StatefulPartitionedCall/sequential_1/lstm_2_1/while/body/_152/sequential_1/lstm_2_1/while/lstm_cell_1/add_1/ReadVariableOp"], "attr": {"_has_manual_control_dependencies": {"b": true}}}, {"name": "StatefulPartitionedCall/sequential_1/dense_1_2/Add", "op": "_FusedMatMul", "input": ["StatefulPartitionedCall/sequential_1/dense_1/Relu", "StatefulPartitionedCall/sequential_1/dense_1_2/Cast/ReadVariableOp", "StatefulPartitionedCall/sequential_1/dense_1_2/Add/ReadVariableOp"], "device": "/device:CPU:0", "attr": {"transpose_a": {"b": false}, "transpose_b": {"b": false}, "fused_ops": {"list": {"s": ["Qmlhc0FkZA=="]}}, "leakyrelu_alpha": {"f": 0.2}, "num_args": {"i": "1"}, "epsilon": {"f": 0.0}, "T": {"type": "DT_FLOAT"}}}, {"name": "StatefulPartitionedCall/sequential_1/lstm_2_1/while/body/_152/sequential_1/lstm_2_1/while/lstm_cell_1/add", "op": "AddV2", "input": ["StatefulPartitionedCall/sequential_1/lstm_2_1/while/body/_152/sequential_1/lstm_2_1/while/lstm_cell_1/add_1/ReadVariableOp", "StatefulPartitionedCall/sequential_1/lstm_2_1/while/body/_152/sequential_1/lstm_2_1/while/lstm_cell_1/MatMul_1"], "attr": {"T": {"type": "DT_FLOAT"}}}, {"name": "StatefulPartitionedCall/sequential_1/lstm_2_1/while/next_iteration/_194", "op": "NextIteration", "input": ["StatefulPartitionedCall/sequential_1/lstm_2_1/while/StatefulPartitionedCall/sequential_1/lstm_2_1/TensorArrayUnstack/TensorListFromTensor_switch/_178:1", "^Func/StatefulPartitionedCall/sequential_1/lstm_2_1/while/body/_152/output_control_node/_330", "^Func/StatefulPartitionedCall/sequential_1/lstm_2_1/while/body/_152/input_control_node/_309"], "attr": {"T": {"type": "DT_VARIANT"}}}, {"name": "StatefulPartitionedCall/sequential_1/lstm_2_1/while/next_iteration/_189", "op": "NextIteration", "input": ["StatefulPartitionedCall/sequential_1/lstm_2_1/while/StatefulPartitionedCall/sequential_1/lstm_2_1/Max_switch/_173:1", "^Func/StatefulPartitionedCall/sequential_1/lstm_2_1/while/body/_152/output_control_node/_330", "^StatefulPartitionedCall/sequential_1/lstm_2_1/while/body/_152/sequential_1/lstm_2_1/while/NoOp", "^Func/StatefulPartitionedCall/sequential_1/lstm_2_1/while/body/_152/input_control_node/_309"], "attr": {"T": {"type": "DT_INT32"}}}, {"name": "StatefulPartitionedCall/sequential_1/lstm_2_1/while/next_iteration/_188", "op": "NextIteration", "input": ["StatefulPartitionedCall/sequential_1/lstm_2_1/while/body/_152/sequential_1/lstm_2_1/while/add_1", "^Func/StatefulPartitionedCall/sequential_1/lstm_2_1/while/body/_152/output_control_node/_330", "^StatefulPartitionedCall/sequential_1/lstm_2_1/while/body/_152/sequential_1/lstm_2_1/while/NoOp"], "attr": {"T": {"type": "DT_INT32"}}}, {"name": "StatefulPartitionedCall/sequential_1/lstm_2_1/while/next_iteration/_190", "op": "NextIteration", "input": ["StatefulPartitionedCall/sequential_1/lstm_2_1/while/body/_152/sequential_1/lstm_2_1/while/add", "^Func/StatefulPartitionedCall/sequential_1/lstm_2_1/while/body/_152/output_control_node/_330", "^StatefulPartitionedCall/sequential_1/lstm_2_1/while/body/_152/sequential_1/lstm_2_1/while/NoOp"], "attr": {"T": {"type": "DT_INT32"}}}, {"name": "Identity", "op": "Identity", "input": ["StatefulPartitionedCall/sequential_1/dense_1_2/Add", "^StatefulPartitionedCall/sequential_1/lstm_2_1/while/exit/_186", "^StatefulPartitionedCall/sequential_1/bidirectional_1/forward_lstm_1/while/exit/_53", "^StatefulPartitionedCall/sequential_1/lstm_1_1/while/exit/_138", "^StatefulPartitionedCall/sequential_1/lstm_1_1/while/exit/_139", "^StatefulPartitionedCall/sequential_1/lstm_1_1/while/exit/_140", "^StatefulPartitionedCall/sequential_1/bidirectional_1/backward_lstm_1/while/exit/_98", "^StatefulPartitionedCall/sequential_1/lstm_1_1/while/exit/_141", "^StatefulPartitionedCall/sequential_1/bidirectional_1/backward_lstm_1/while/exit/_92", "^StatefulPartitionedCall/sequential_1/bidirectional_1/backward_lstm_1/while/exit/_93", "^StatefulPartitionedCall/sequential_1/bidirectional_1/forward_lstm_1/while/exit/_54", "^StatefulPartitionedCall/sequential_1/bidirectional_1/backward_lstm_1/while/exit/_94", "^StatefulPartitionedCall/sequential_1/bidirectional_1/backward_lstm_1/while/exit/_95", "^StatefulPartitionedCall/sequential_1/bidirectional_1/backward_lstm_1/while/exit/_96", "^StatefulPartitionedCall/sequential_1/bidirectional_1/backward_lstm_1/while/exit/_97", "^StatefulPartitionedCall/sequential_1/bidirectional_1/forward_lstm_1/while/exit/_48", "^StatefulPartitionedCall/sequential_1/bidirectional_1/forward_lstm_1/while/exit/_49", "^StatefulPartitionedCall/sequential_1/bidirectional_1/forward_lstm_1/while/exit/_50", "^StatefulPartitionedCall/sequential_1/lstm_1_1/while/exit/_142", "^StatefulPartitionedCall/sequential_1/bidirectional_1/forward_lstm_1/while/exit/_51", "^StatefulPartitionedCall/sequential_1/bidirectional_1/forward_lstm_1/while/exit/_52", "^StatefulPartitionedCall/sequential_1/lstm_2_1/while/exit/_180", "^StatefulPartitionedCall/sequential_1/lstm_2_1/while/exit/_181", "^StatefulPartitionedCall/sequential_1/lstm_2_1/while/exit/_182", "^StatefulPartitionedCall/sequential_1/lstm_2_1/while/exit/_183", "^StatefulPartitionedCall/sequential_1/lstm_2_1/while/exit/_184", "^StatefulPartitionedCall/sequential_1/lstm_2_1/while/exit/_185", "^StatefulPartitionedCall/sequential_1/lstm_1_1/while/exit/_136", "^StatefulPartitionedCall/sequential_1/lstm_1_1/while/exit/_137"], "attr": {"T": {"type": "DT_FLOAT"}}}, {"name": "StatefulPartitionedCall/sequential_1/lstm_2_1/while/body/_152/sequential_1/lstm_2_1/while/lstm_cell_1/add_1", "op": "_FusedMatMul", "input": ["StatefulPartitionedCall/sequential_1/lstm_2_1/while/body/_152/sequential_1/lstm_2_1/while/TensorArrayV2Read/TensorListGetItem", "StatefulPartitionedCall/sequential_1/lstm_2_1/while/body/_152/sequential_1/lstm_2_1/while/lstm_cell_1/Cast/ReadVariableOp", "StatefulPartitionedCall/sequential_1/lstm_2_1/while/body/_152/sequential_1/lstm_2_1/while/lstm_cell_1/add"], "device": "/device:CPU:0", "attr": {"transpose_a": {"b": false}, "transpose_b": {"b": false}, "fused_ops": {"list": {"s": ["Qmlhc0FkZA=="]}}, "leakyrelu_alpha": {"f": 0.2}, "num_args": {"i": "1"}, "epsilon": {"f": 0.0}, "T": {"type": "DT_FLOAT"}}}, {"name": "StatefulPartitionedCall/sequential_1/lstm_2_1/while/body/_152/sequential_1/lstm_2_1/while/lstm_cell_1/split", "op": "Split", "input": ["StatefulPartitionedCall/sequential_1/lstm_2_1/while/body/_152/sequential_1/lstm_2_1/while/lstm_cell_1/split/split_dim", "StatefulPartitionedCall/sequential_1/lstm_2_1/while/body/_152/sequential_1/lstm_2_1/while/lstm_cell_1/add_1"], "attr": {"num_split": {"i": "4"}, "T": {"type": "DT_FLOAT"}}}, {"name": "StatefulPartitionedCall/sequential_1/lstm_2_1/while/body/_152/sequential_1/lstm_2_1/while/lstm_cell_1/Sigmoid", "op": "Sigmoid", "input": ["StatefulPartitionedCall/sequential_1/lstm_2_1/while/body/_152/sequential_1/lstm_2_1/while/lstm_cell_1/split"], "attr": {"T": {"type": "DT_FLOAT"}}}, {"name": "StatefulPartitionedCall/sequential_1/lstm_2_1/while/body/_152/sequential_1/lstm_2_1/while/lstm_cell_1/Sigmoid_1", "op": "Sigmoid", "input": ["StatefulPartitionedCall/sequential_1/lstm_2_1/while/body/_152/sequential_1/lstm_2_1/while/lstm_cell_1/split:1"], "attr": {"T": {"type": "DT_FLOAT"}}}, {"name": "StatefulPartitionedCall/sequential_1/lstm_2_1/while/body/_152/sequential_1/lstm_2_1/while/lstm_cell_1/Tanh", "op": "Tanh", "input": ["StatefulPartitionedCall/sequential_1/lstm_2_1/while/body/_152/sequential_1/lstm_2_1/while/lstm_cell_1/split:2"], "attr": {"T": {"type": "DT_FLOAT"}}}, {"name": "StatefulPartitionedCall/sequential_1/lstm_2_1/while/body/_152/sequential_1/lstm_2_1/while/lstm_cell_1/Sigmoid_2", "op": "Sigmoid", "input": ["StatefulPartitionedCall/sequential_1/lstm_2_1/while/body/_152/sequential_1/lstm_2_1/while/lstm_cell_1/split:3"], "attr": {"T": {"type": "DT_FLOAT"}}}, {"name": "StatefulPartitionedCall/sequential_1/lstm_2_1/while/body/_152/sequential_1/lstm_2_1/while/lstm_cell_1/mul", "op": "Mul", "input": ["StatefulPartitionedCall/sequential_1/lstm_2_1/while/body/_152/sequential_1/lstm_2_1/while/lstm_cell_1/Sigmoid_1", "StatefulPartitionedCall/sequential_1/lstm_2_1/while/StatefulPartitionedCall/sequential_1/lstm_2_1/zeros_1_switch/_177:1"], "attr": {"T": {"type": "DT_FLOAT"}}}, {"name": "StatefulPartitionedCall/sequential_1/lstm_2_1/while/body/_152/sequential_1/lstm_2_1/while/lstm_cell_1/mul_1", "op": "Mul", "input": ["StatefulPartitionedCall/sequential_1/lstm_2_1/while/body/_152/sequential_1/lstm_2_1/while/lstm_cell_1/Sigmoid", "StatefulPartitionedCall/sequential_1/lstm_2_1/while/body/_152/sequential_1/lstm_2_1/while/lstm_cell_1/Tanh"], "attr": {"T": {"type": "DT_FLOAT"}}}, {"name": "StatefulPartitionedCall/sequential_1/lstm_2_1/while/body/_152/sequential_1/lstm_2_1/while/lstm_cell_1/add_2", "op": "AddV2", "input": ["StatefulPartitionedCall/sequential_1/lstm_2_1/while/body/_152/sequential_1/lstm_2_1/while/lstm_cell_1/mul", "StatefulPartitionedCall/sequential_1/lstm_2_1/while/body/_152/sequential_1/lstm_2_1/while/lstm_cell_1/mul_1"], "attr": {"T": {"type": "DT_FLOAT"}}}, {"name": "StatefulPartitionedCall/sequential_1/lstm_2_1/while/body/_152/sequential_1/lstm_2_1/while/lstm_cell_1/Tanh_1", "op": "Tanh", "input": ["StatefulPartitionedCall/sequential_1/lstm_2_1/while/body/_152/sequential_1/lstm_2_1/while/lstm_cell_1/add_2"], "attr": {"T": {"type": "DT_FLOAT"}}}, {"name": "StatefulPartitionedCall/sequential_1/lstm_2_1/while/next_iteration/_193", "op": "NextIteration", "input": ["StatefulPartitionedCall/sequential_1/lstm_2_1/while/body/_152/sequential_1/lstm_2_1/while/lstm_cell_1/add_2", "^Func/StatefulPartitionedCall/sequential_1/lstm_2_1/while/body/_152/output_control_node/_330", "^StatefulPartitionedCall/sequential_1/lstm_2_1/while/body/_152/sequential_1/lstm_2_1/while/NoOp"], "attr": {"T": {"type": "DT_FLOAT"}}}, {"name": "StatefulPartitionedCall/sequential_1/lstm_2_1/while/body/_152/sequential_1/lstm_2_1/while/lstm_cell_1/mul_2", "op": "Mul", "input": ["StatefulPartitionedCall/sequential_1/lstm_2_1/while/body/_152/sequential_1/lstm_2_1/while/lstm_cell_1/Sigmoid_2", "StatefulPartitionedCall/sequential_1/lstm_2_1/while/body/_152/sequential_1/lstm_2_1/while/lstm_cell_1/Tanh_1"], "attr": {"T": {"type": "DT_FLOAT"}}}, {"name": "StatefulPartitionedCall/sequential_1/lstm_2_1/while/body/_152/sequential_1/lstm_2_1/while/TensorArrayV2Write/TensorListSetItem", "op": "TensorListSetItem", "input": ["StatefulPartitionedCall/sequential_1/lstm_2_1/while/StatefulPartitionedCall/sequential_1/lstm_2_1/TensorArrayV2_1_switch/_175:1", "StatefulPartitionedCall/sequential_1/lstm_2_1/while/body/_152/sequential_1/lstm_2_1/while/TensorArrayV2Write/TensorListSetItem/index", "StatefulPartitionedCall/sequential_1/lstm_2_1/while/body/_152/sequential_1/lstm_2_1/while/lstm_cell_1/mul_2"], "attr": {"element_dtype": {"type": "DT_FLOAT"}, "resize_if_index_out_of_bounds": {"b": false}}, "experimentalType": {"typeId": "TFT_PRODUCT", "args": [{"typeId": "TFT_ARRAY", "args": [{"typeId": "TFT_TENSOR", "args": [{"typeId": "TFT_FLOAT"}]}]}]}}, {"name": "StatefulPartitionedCall/sequential_1/lstm_2_1/while/next_iteration/_192", "op": "NextIteration", "input": ["StatefulPartitionedCall/sequential_1/lstm_2_1/while/body/_152/sequential_1/lstm_2_1/while/lstm_cell_1/mul_2", "^Func/StatefulPartitionedCall/sequential_1/lstm_2_1/while/body/_152/output_control_node/_330", "^StatefulPartitionedCall/sequential_1/lstm_2_1/while/body/_152/sequential_1/lstm_2_1/while/NoOp"], "attr": {"T": {"type": "DT_FLOAT"}}}, {"name": "StatefulPartitionedCall/sequential_1/lstm_2_1/while/next_iteration/_191", "op": "NextIteration", "input": ["StatefulPartitionedCall/sequential_1/lstm_2_1/while/body/_152/sequential_1/lstm_2_1/while/TensorArrayV2Write/TensorListSetItem", "^Func/StatefulPartitionedCall/sequential_1/lstm_2_1/while/body/_152/output_control_node/_330", "^StatefulPartitionedCall/sequential_1/lstm_2_1/while/body/_152/sequential_1/lstm_2_1/while/NoOp"], "attr": {"T": {"type": "DT_VARIANT"}}}], "library": {}, "versions": {"producer": 1994}}, "weightsManifest": [{"paths": ["group1-shard1of1.bin"], "weights": [{"name": "StatefulPartitionedCall/sequential_1/lstm_2_1/TensorArrayV2Stack/TensorListStack/element_shape", "shape": [2], "dtype": "int32"}, {"name": "StatefulPartitionedCall/sequential_1/lstm_2_1/strided_slice_3/stack", "shape": [1], "dtype": "int32"}, {"name": "StatefulPartitionedCall/sequential_1/lstm_2_1/strided_slice_3/stack_1", "shape": [1], "dtype": "int32"}, {"name": "StatefulPartitionedCall/sequential_1/lstm_2_1/strided_slice_3/stack_2", "shape": [1], "dtype": "int32"}, {"name": "StatefulPartitionedCall/sequential_1/dense_1/Cast/ReadVariableOp", "shape": [32, 10], "dtype": "float32"}, {"name": "StatefulPartitionedCall/sequential_1/dense_1/Add/ReadVariableOp", "shape": [10], "dtype": "float32"}, {"name": "StatefulPartitionedCall/sequential_1/dense_1_2/Cast/ReadVariableOp", "shape": [10, 1], "dtype": "float32"}, {"name": "StatefulPartitionedCall/sequential_1/dense_1_2/Add/ReadVariableOp", "shape": [1], "dtype": "float32"}, {"name": "StatefulPartitionedCall/sequential_1/lstm_2_1/Max", "shape": [], "dtype": "int32"}, {"name": "StatefulPartitionedCall/sequential_1/lstm_2_1/while/loop_counter", "shape": [], "dtype": "int32"}, {"name": "StatefulPartitionedCall/sequential_1/lstm_2_1/time", "shape": [], "dtype": "int32"}, {"name": "Func/StatefulPartitionedCall/input/_10", "shape": [64, 128], "dtype": "float32"}, {"name": "Func/StatefulPartitionedCall/input/_11", "shape": [32, 128], "dtype": "float32"}, {"name": "Func/StatefulPartitionedCall/input/_12", "shape": [128], "dtype": "float32"}, {"name": "StatefulPartitionedCall/sequential_1/lstm_2_1/TensorArrayUnstack/TensorListFromTensor/element_shape", "shape": [2], "dtype": "int32"}, {"name": "StatefulPartitionedCall/sequential_1/lstm_2_1/TensorArrayV2_1/element_shape", "shape": [2], "dtype": "int32"}, {"name": "StatefulPartitionedCall/sequential_1/lstm_2_1/TensorArrayV2_1/num_elements", "shape": [], "dtype": "int32"}, {"name": "StatefulPartitionedCall/sequential_1/lstm_2_1/zeros/packed/1", "shape": [], "dtype": "int32"}, {"name": "StatefulPartitionedCall/sequential_1/lstm_2_1/zeros/Const", "shape": [], "dtype": "float32"}, {"name": "StatefulPartitionedCall/sequential_1/lstm_1_1/TensorArrayV2Stack/TensorListStack/element_shape", "shape": [2], "dtype": "int32"}, {"name": "StatefulPartitionedCall/sequential_1/lstm_1_1/transpose_1/perm", "shape": [3], "dtype": "int32"}, {"name": "StatefulPartitionedCall/sequential_1/lstm_2_1/strided_slice/stack", "shape": [1], "dtype": "int32"}, {"name": "StatefulPartitionedCall/sequential_1/lstm_2_1/strided_slice/stack_1", "shape": [1], "dtype": "int32"}, {"name": "StatefulPartitionedCall/sequential_1/lstm_2_1/strided_slice/stack_2", "shape": [1], "dtype": "int32"}, {"name": "StatefulPartitionedCall/sequential_1/lstm_2_1/zeros_1/packed/1", "shape": [], "dtype": "int32"}, {"name": "StatefulPartitionedCall/sequential_1/lstm_2_1/zeros_1/Const", "shape": [], "dtype": "float32"}, {"name": "StatefulPartitionedCall/sequential_1/lstm_1_1/Max", "shape": [], "dtype": "int32"}, {"name": "StatefulPartitionedCall/sequential_1/lstm_1_1/while/loop_counter", "shape": [], "dtype": "int32"}, {"name": "StatefulPartitionedCall/sequential_1/lstm_1_1/time", "shape": [], "dtype": "int32"}, {"name": "Func/StatefulPartitionedCall/input/_7", "shape": [256, 256], "dtype": "float32"}, {"name": "Func/StatefulPartitionedCall/input/_8", "shape": [64, 256], "dtype": "float32"}, {"name": "Func/StatefulPartitionedCall/input/_9", "shape": [256], "dtype": "float32"}, {"name": "StatefulPartitionedCall/sequential_1/lstm_1_1/transpose/perm", "shape": [3], "dtype": "int32"}, {"name": "StatefulPartitionedCall/sequential_1/lstm_1_1/TensorArrayUnstack/TensorListFromTensor/element_shape", "shape": [2], "dtype": "int32"}, {"name": "StatefulPartitionedCall/sequential_1/lstm_1_1/TensorArrayV2_1/element_shape", "shape": [2], "dtype": "int32"}, {"name": "StatefulPartitionedCall/sequential_1/lstm_1_1/TensorArrayV2_1/num_elements", "shape": [], "dtype": "int32"}, {"name": "StatefulPartitionedCall/sequential_1/lstm_1_1/zeros/packed/1", "shape": [], "dtype": "int32"}, {"name": "StatefulPartitionedCall/sequential_1/lstm_1_1/zeros/Const", "shape": [], "dtype": "float32"}, {"name": "StatefulPartitionedCall/sequential_1/bidirectional_1/forward_lstm_1/Max", "shape": [], "dtype": "int32"}, {"name": "StatefulPartitionedCall/sequential_1/bidirectional_1/forward_lstm_1/while/loop_counter", "shape": [], "dtype": "int32"}, {"name": "StatefulPartitionedCall/sequential_1/bidirectional_1/forward_lstm_1/time", "shape": [], "dtype": "int32"}, {"name": "Func/StatefulPartitionedCall/input/_1", "shape": [6, 512], "dtype": "float32"}, {"name": "Func/StatefulPartitionedCall/input/_2", "shape": [128, 512], "dtype": "float32"}, {"name": "Func/StatefulPartitionedCall/input/_3", "shape": [512], "dtype": "float32"}, {"name": "StatefulPartitionedCall/sequential_1/bidirectional_1/forward_lstm_1/transpose/perm", "shape": [3], "dtype": "int32"}, {"name": "StatefulPartitionedCall/sequential_1/bidirectional_1/forward_lstm_1/TensorArrayUnstack/TensorListFromTensor/element_shape", "shape": [2], "dtype": "int32"}, {"name": "StatefulPartitionedCall/sequential_1/bidirectional_1/forward_lstm_1/TensorArrayV2_1/element_shape", "shape": [2], "dtype": "int32"}, {"name": "StatefulPartitionedCall/sequential_1/bidirectional_1/forward_lstm_1/TensorArrayV2_1/num_elements", "shape": [], "dtype": "int32"}, {"name": "StatefulPartitionedCall/sequential_1/bidirectional_1/forward_lstm_1/zeros/packed/1", "shape": [], "dtype": "int32"}, {"name": "StatefulPartitionedCall/sequential_1/bidirectional_1/forward_lstm_1/zeros/Const", "shape": [], "dtype": "float32"}, {"name": "StatefulPartitionedCall/sequential_1/bidirectional_1/forward_lstm_1/strided_slice/stack", "shape": [1], "dtype": "int32"}, {"name": "StatefulPartitionedCall/sequential_1/bidirectional_1/forward_lstm_1/strided_slice/stack_1", "shape": [1], "dtype": "int32"}, {"name": "StatefulPartitionedCall/sequential_1/bidirectional_1/forward_lstm_1/strided_slice/stack_2", "shape": [1], "dtype": "int32"}, {"name": "StatefulPartitionedCall/sequential_1/bidirectional_1/forward_lstm_1/zeros_1/packed/1", "shape": [], "dtype": "int32"}, {"name": "StatefulPartitionedCall/sequential_1/bidirectional_1/forward_lstm_1/zeros_1/Const", "shape": [], "dtype": "float32"}, {"name": "StatefulPartitionedCall/sequential_1/bidirectional_1/forward_lstm_1/TensorArrayV2Stack/TensorListStack/element_shape", "shape": [2], "dtype": "int32"}, {"name": "StatefulPartitionedCall/sequential_1/bidirectional_1/forward_lstm_1/transpose_1/perm", "shape": [3], "dtype": "int32"}, {"name": "StatefulPartitionedCall/sequential_1/bidirectional_1/backward_lstm_1/Max", "shape": [], "dtype": "int32"}, {"name": "StatefulPartitionedCall/sequential_1/bidirectional_1/backward_lstm_1/while/loop_counter", "shape": [], "dtype": "int32"}, {"name": "StatefulPartitionedCall/sequential_1/bidirectional_1/backward_lstm_1/time", "shape": [], "dtype": "int32"}, {"name": "Func/StatefulPartitionedCall/input/_4", "shape": [6, 512], "dtype": "float32"}, {"name": "Func/StatefulPartitionedCall/input/_5", "shape": [128, 512], "dtype": "float32"}, {"name": "Func/StatefulPartitionedCall/input/_6", "shape": [512], "dtype": "float32"}, {"name": "StatefulPartitionedCall/sequential_1/bidirectional_1/backward_lstm_1/transpose/perm", "shape": [3], "dtype": "int32"}, {"name": "StatefulPartitionedCall/sequential_1/bidirectional_1/backward_lstm_1/ReverseV2/axis", "shape": [1], "dtype": "int32"}, {"name": "StatefulPartitionedCall/sequential_1/bidirectional_1/backward_lstm_1/TensorArrayUnstack/TensorListFromTensor/element_shape", "shape": [2], "dtype": "int32"}, {"name": "StatefulPartitionedCall/sequential_1/bidirectional_1/backward_lstm_1/TensorArrayV2_1/element_shape", "shape": [2], "dtype": "int32"}, {"name": "StatefulPartitionedCall/sequential_1/bidirectional_1/backward_lstm_1/TensorArrayV2_1/num_elements", "shape": [], "dtype": "int32"}, {"name": "StatefulPartitionedCall/sequential_1/bidirectional_1/backward_lstm_1/zeros/packed/1", "shape": [], "dtype": "int32"}, {"name": "StatefulPartitionedCall/sequential_1/bidirectional_1/backward_lstm_1/zeros/Const", "shape": [], "dtype": "float32"}, {"name": "StatefulPartitionedCall/sequential_1/bidirectional_1/backward_lstm_1/strided_slice/stack", "shape": [1], "dtype": "int32"}, {"name": "StatefulPartitionedCall/sequential_1/bidirectional_1/backward_lstm_1/strided_slice/stack_1", "shape": [1], "dtype": "int32"}, {"name": "StatefulPartitionedCall/sequential_1/bidirectional_1/backward_lstm_1/strided_slice/stack_2", "shape": [1], "dtype": "int32"}, {"name": "StatefulPartitionedCall/sequential_1/bidirectional_1/backward_lstm_1/zeros_1/packed/1", "shape": [], "dtype": "int32"}, {"name": "StatefulPartitionedCall/sequential_1/bidirectional_1/backward_lstm_1/zeros_1/Const", "shape": [], "dtype": "float32"}, {"name": "StatefulPartitionedCall/sequential_1/bidirectional_1/backward_lstm_1/TensorArrayV2Stack/TensorListStack/element_shape", "shape": [2], "dtype": "int32"}, {"name": "StatefulPartitionedCall/sequential_1/bidirectional_1/backward_lstm_1/transpose_1/perm", "shape": [3], "dtype": "int32"}, {"name": "StatefulPartitionedCall/sequential_1/bidirectional_1/ReverseV2/axis", "shape": [1], "dtype": "int32"}, {"name": "StatefulPartitionedCall/sequential_1/bidirectional_1/concat/axis", "shape": [], "dtype": "int32"}, {"name": "StatefulPartitionedCall/sequential_1/lstm_1_1/strided_slice/stack", "shape": [1], "dtype": "int32"}, {"name": "StatefulPartitionedCall/sequential_1/lstm_1_1/strided_slice/stack_1", "shape": [1], "dtype": "int32"}, {"name": "StatefulPartitionedCall/sequential_1/lstm_1_1/strided_slice/stack_2", "shape": [1], "dtype": "int32"}, {"name": "StatefulPartitionedCall/sequential_1/lstm_1_1/zeros_1/packed/1", "shape": [], "dtype": "int32"}, {"name": "StatefulPartitionedCall/sequential_1/lstm_1_1/zeros_1/Const", "shape": [], "dtype": "float32"}, {"name": "StatefulPartitionedCall/sequential_1/bidirectional_1/forward_lstm_1/while/cond/_19/sequential_1/bidirectional_1/forward_lstm_1/while/Less/y", "shape": [], "dtype": "int32"}, {"name": "StatefulPartitionedCall/sequential_1/bidirectional_1/backward_lstm_1/while/cond/_63/sequential_1/bidirectional_1/backward_lstm_1/while/Less/y", "shape": [], "dtype": "int32"}, {"name": "StatefulPartitionedCall/sequential_1/bidirectional_1/forward_lstm_1/while/body/_20/sequential_1/bidirectional_1/forward_lstm_1/while/add_1/y", "shape": [], "dtype": "int32"}, {"name": "StatefulPartitionedCall/sequential_1/bidirectional_1/forward_lstm_1/while/body/_20/sequential_1/bidirectional_1/forward_lstm_1/while/lstm_cell_1/split/split_dim", "shape": [], "dtype": "int32"}, {"name": "StatefulPartitionedCall/sequential_1/bidirectional_1/forward_lstm_1/while/body/_20/sequential_1/bidirectional_1/forward_lstm_1/while/add/y", "shape": [], "dtype": "int32"}, {"name": "StatefulPartitionedCall/sequential_1/bidirectional_1/forward_lstm_1/while/body/_20/sequential_1/bidirectional_1/forward_lstm_1/while/TensorArrayV2Read/TensorListGetItem/element_shape", "shape": [2], "dtype": "int32"}, {"name": "StatefulPartitionedCall/sequential_1/bidirectional_1/forward_lstm_1/while/body/_20/sequential_1/bidirectional_1/forward_lstm_1/while/lstm_cell_1/Cast/ReadVariableOp", "shape": [6, 512], "dtype": "float32"}, {"name": "StatefulPartitionedCall/sequential_1/bidirectional_1/forward_lstm_1/while/body/_20/sequential_1/bidirectional_1/forward_lstm_1/while/lstm_cell_1/Cast_1/ReadVariableOp", "shape": [128, 512], "dtype": "float32"}, {"name": "StatefulPartitionedCall/sequential_1/bidirectional_1/forward_lstm_1/while/body/_20/sequential_1/bidirectional_1/forward_lstm_1/while/lstm_cell_1/add_1/ReadVariableOp", "shape": [512], "dtype": "float32"}, {"name": "StatefulPartitionedCall/sequential_1/bidirectional_1/backward_lstm_1/while/body/_64/sequential_1/bidirectional_1/backward_lstm_1/while/add_1/y", "shape": [], "dtype": "int32"}, {"name": "StatefulPartitionedCall/sequential_1/bidirectional_1/backward_lstm_1/while/body/_64/sequential_1/bidirectional_1/backward_lstm_1/while/lstm_cell_1/split/split_dim", "shape": [], "dtype": "int32"}, {"name": "StatefulPartitionedCall/sequential_1/bidirectional_1/backward_lstm_1/while/body/_64/sequential_1/bidirectional_1/backward_lstm_1/while/add/y", "shape": [], "dtype": "int32"}, {"name": "StatefulPartitionedCall/sequential_1/bidirectional_1/backward_lstm_1/while/body/_64/sequential_1/bidirectional_1/backward_lstm_1/while/TensorArrayV2Read/TensorListGetItem/element_shape", "shape": [2], "dtype": "int32"}, {"name": "StatefulPartitionedCall/sequential_1/bidirectional_1/backward_lstm_1/while/body/_64/sequential_1/bidirectional_1/backward_lstm_1/while/lstm_cell_1/Cast/ReadVariableOp", "shape": [6, 512], "dtype": "float32"}, {"name": "StatefulPartitionedCall/sequential_1/bidirectional_1/backward_lstm_1/while/body/_64/sequential_1/bidirectional_1/backward_lstm_1/while/lstm_cell_1/Cast_1/ReadVariableOp", "shape": [128, 512], "dtype": "float32"}, {"name": "StatefulPartitionedCall/sequential_1/bidirectional_1/backward_lstm_1/while/body/_64/sequential_1/bidirectional_1/backward_lstm_1/while/lstm_cell_1/add_1/ReadVariableOp", "shape": [512], "dtype": "float32"}, {"name": "StatefulPartitionedCall/sequential_1/lstm_1_1/while/cond/_107/sequential_1/lstm_1_1/while/Less/y", "shape": [], "dtype": "int32"}, {"name": "StatefulPartitionedCall/sequential_1/lstm_1_1/while/body/_108/sequential_1/lstm_1_1/while/add_1/y", "shape": [], "dtype": "int32"}, {"name": "StatefulPartitionedCall/sequential_1/lstm_1_1/while/body/_108/sequential_1/lstm_1_1/while/lstm_cell_1/split/split_dim", "shape": [], "dtype": "int32"}, {"name": "StatefulPartitionedCall/sequential_1/lstm_1_1/while/body/_108/sequential_1/lstm_1_1/while/add/y", "shape": [], "dtype": "int32"}, {"name": "StatefulPartitionedCall/sequential_1/lstm_1_1/while/body/_108/sequential_1/lstm_1_1/while/TensorArrayV2Read/TensorListGetItem/element_shape", "shape": [2], "dtype": "int32"}, {"name": "StatefulPartitionedCall/sequential_1/lstm_1_1/while/body/_108/sequential_1/lstm_1_1/while/lstm_cell_1/Cast/ReadVariableOp", "shape": [256, 256], "dtype": "float32"}, {"name": "StatefulPartitionedCall/sequential_1/lstm_1_1/while/body/_108/sequential_1/lstm_1_1/while/lstm_cell_1/Cast_1/ReadVariableOp", "shape": [64, 256], "dtype": "float32"}, {"name": "StatefulPartitionedCall/sequential_1/lstm_1_1/while/body/_108/sequential_1/lstm_1_1/while/lstm_cell_1/add_1/ReadVariableOp", "shape": [256], "dtype": "float32"}, {"name": "StatefulPartitionedCall/sequential_1/lstm_2_1/while/cond/_151/sequential_1/lstm_2_1/while/Less/y", "shape": [], "dtype": "int32"}, {"name": "StatefulPartitionedCall/sequential_1/lstm_2_1/while/body/_152/sequential_1/lstm_2_1/while/TensorArrayV2Write/TensorListSetItem/index", "shape": [], "dtype": "int32"}, {"name": "StatefulPartitionedCall/sequential_1/lstm_2_1/while/body/_152/sequential_1/lstm_2_1/while/add_1/y", "shape": [], "dtype": "int32"}, {"name": "StatefulPartitionedCall/sequential_1/lstm_2_1/while/body/_152/sequential_1/lstm_2_1/while/lstm_cell_1/split/split_dim", "shape": [], "dtype": "int32"}, {"name": "StatefulPartitionedCall/sequential_1/lstm_2_1/while/body/_152/sequential_1/lstm_2_1/while/add/y", "shape": [], "dtype": "int32"}, {"name": "StatefulPartitionedCall/sequential_1/lstm_2_1/while/body/_152/sequential_1/lstm_2_1/while/TensorArrayV2Read/TensorListGetItem/element_shape", "shape": [2], "dtype": "int32"}, {"name": "StatefulPartitionedCall/sequential_1/lstm_2_1/while/body/_152/sequential_1/lstm_2_1/while/lstm_cell_1/Cast/ReadVariableOp", "shape": [64, 128], "dtype": "float32"}, {"name": "StatefulPartitionedCall/sequential_1/lstm_2_1/while/body/_152/sequential_1/lstm_2_1/while/lstm_cell_1/Cast_1/ReadVariableOp", "shape": [32, 128], "dtype": "float32"}, {"name": "StatefulPartitionedCall/sequential_1/lstm_2_1/while/body/_152/sequential_1/lstm_2_1/while/lstm_cell_1/add_1/ReadVariableOp", "shape": [128], "dtype": "float32"}]}]}